node {
  name: "import/input/x-input"
  op: "Placeholder"
  device: "/device:CPU:0"
  attr {
    key: "_output_shapes"
    value {
      list {
        shape {
          dim {
            size: -1
          }
          dim {
            size: 784
          }
        }
      }
    }
  }
  attr {
    key: "dtype"
    value {
      type: DT_FLOAT
    }
  }
  attr {
    key: "shape"
    value {
      shape {
        dim {
          size: -1
        }
        dim {
          size: 784
        }
      }
    }
  }
}
node {
  name: "import/input/y-input"
  op: "Placeholder"
  device: "/device:CPU:0"
  attr {
    key: "_output_shapes"
    value {
      list {
        shape {
          dim {
            size: -1
          }
        }
      }
    }
  }
  attr {
    key: "dtype"
    value {
      type: DT_INT64
    }
  }
  attr {
    key: "shape"
    value {
      shape {
        dim {
          size: -1
        }
      }
    }
  }
}
node {
  name: "import/input_reshape/Reshape/shape"
  op: "Const"
  device: "/device:CPU:0"
  attr {
    key: "_output_shapes"
    value {
      list {
        shape {
          dim {
            size: 4
          }
        }
      }
    }
  }
  attr {
    key: "dtype"
    value {
      type: DT_INT32
    }
  }
  attr {
    key: "value"
    value {
      tensor {
        dtype: DT_INT32
        tensor_shape {
          dim {
            size: 4
          }
        }
        tensor_content: "\377\377\377\377\034\000\000\000\034\000\000\000\001\000\000\000"
      }
    }
  }
}
node {
  name: "import/input_reshape/Reshape"
  op: "Reshape"
  input: "import/input/x-input"
  input: "import/input_reshape/Reshape/shape"
  device: "/device:CPU:0"
  attr {
    key: "T"
    value {
      type: DT_FLOAT
    }
  }
  attr {
    key: "Tshape"
    value {
      type: DT_INT32
    }
  }
  attr {
    key: "_output_shapes"
    value {
      list {
        shape {
          dim {
            size: -1
          }
          dim {
            size: 28
          }
          dim {
            size: 28
          }
          dim {
            size: 1
          }
        }
      }
    }
  }
}
node {
  name: "import/input_reshape/input/tag"
  op: "Const"
  device: "/device:CPU:0"
  attr {
    key: "_output_shapes"
    value {
      list {
        shape {
        }
      }
    }
  }
  attr {
    key: "dtype"
    value {
      type: DT_STRING
    }
  }
  attr {
    key: "value"
    value {
      tensor {
        dtype: DT_STRING
        tensor_shape {
        }
        string_val: "input_reshape/input"
      }
    }
  }
}
node {
  name: "import/input_reshape/input"
  op: "ImageSummary"
  input: "import/input_reshape/input/tag"
  input: "import/input_reshape/Reshape"
  device: "/device:CPU:0"
  attr {
    key: "T"
    value {
      type: DT_FLOAT
    }
  }
  attr {
    key: "_output_shapes"
    value {
      list {
        shape {
        }
      }
    }
  }
  attr {
    key: "bad_color"
    value {
      tensor {
        dtype: DT_UINT8
        tensor_shape {
          dim {
            size: 4
          }
        }
        int_val: 255
        int_val: 0
        int_val: 0
        int_val: 255
      }
    }
  }
  attr {
    key: "max_images"
    value {
      i: 10
    }
  }
}
node {
  name: "import/layer1/weights/truncated_normal/shape"
  op: "Const"
  device: "/device:CPU:0"
  attr {
    key: "_output_shapes"
    value {
      list {
        shape {
          dim {
            size: 2
          }
        }
      }
    }
  }
  attr {
    key: "dtype"
    value {
      type: DT_INT32
    }
  }
  attr {
    key: "value"
    value {
      tensor {
        dtype: DT_INT32
        tensor_shape {
          dim {
            size: 2
          }
        }
        tensor_content: "\020\003\000\000\364\001\000\000"
      }
    }
  }
}
node {
  name: "import/layer1/weights/truncated_normal/mean"
  op: "Const"
  device: "/device:CPU:0"
  attr {
    key: "_output_shapes"
    value {
      list {
        shape {
        }
      }
    }
  }
  attr {
    key: "dtype"
    value {
      type: DT_FLOAT
    }
  }
  attr {
    key: "value"
    value {
      tensor {
        dtype: DT_FLOAT
        tensor_shape {
        }
        float_val: 0.0
      }
    }
  }
}
node {
  name: "import/layer1/weights/truncated_normal/stddev"
  op: "Const"
  device: "/device:CPU:0"
  attr {
    key: "_output_shapes"
    value {
      list {
        shape {
        }
      }
    }
  }
  attr {
    key: "dtype"
    value {
      type: DT_FLOAT
    }
  }
  attr {
    key: "value"
    value {
      tensor {
        dtype: DT_FLOAT
        tensor_shape {
        }
        float_val: 0.10000000149011612
      }
    }
  }
}
node {
  name: "import/layer1/weights/truncated_normal/TruncatedNormal"
  op: "TruncatedNormal"
  input: "import/layer1/weights/truncated_normal/shape"
  device: "/device:CPU:0"
  attr {
    key: "T"
    value {
      type: DT_INT32
    }
  }
  attr {
    key: "_output_shapes"
    value {
      list {
        shape {
          dim {
            size: 784
          }
          dim {
            size: 500
          }
        }
      }
    }
  }
  attr {
    key: "dtype"
    value {
      type: DT_FLOAT
    }
  }
  attr {
    key: "seed"
    value {
      i: 0
    }
  }
  attr {
    key: "seed2"
    value {
      i: 0
    }
  }
}
node {
  name: "import/layer1/weights/truncated_normal/mul"
  op: "Mul"
  input: "import/layer1/weights/truncated_normal/TruncatedNormal"
  input: "import/layer1/weights/truncated_normal/stddev"
  device: "/device:CPU:0"
  attr {
    key: "T"
    value {
      type: DT_FLOAT
    }
  }
  attr {
    key: "_output_shapes"
    value {
      list {
        shape {
          dim {
            size: 784
          }
          dim {
            size: 500
          }
        }
      }
    }
  }
}
node {
  name: "import/layer1/weights/truncated_normal"
  op: "Add"
  input: "import/layer1/weights/truncated_normal/mul"
  input: "import/layer1/weights/truncated_normal/mean"
  device: "/device:CPU:0"
  attr {
    key: "T"
    value {
      type: DT_FLOAT
    }
  }
  attr {
    key: "_output_shapes"
    value {
      list {
        shape {
          dim {
            size: 784
          }
          dim {
            size: 500
          }
        }
      }
    }
  }
}
node {
  name: "import/layer1/weights/Variable"
  op: "VariableV2"
  device: "/device:CPU:0"
  attr {
    key: "_output_shapes"
    value {
      list {
        shape {
          dim {
            size: 784
          }
          dim {
            size: 500
          }
        }
      }
    }
  }
  attr {
    key: "container"
    value {
      s: ""
    }
  }
  attr {
    key: "dtype"
    value {
      type: DT_FLOAT
    }
  }
  attr {
    key: "shape"
    value {
      shape {
        dim {
          size: 784
        }
        dim {
          size: 500
        }
      }
    }
  }
  attr {
    key: "shared_name"
    value {
      s: ""
    }
  }
}
node {
  name: "import/layer1/weights/Variable/Assign"
  op: "Assign"
  input: "import/layer1/weights/Variable"
  input: "import/layer1/weights/truncated_normal"
  device: "/device:CPU:0"
  attr {
    key: "T"
    value {
      type: DT_FLOAT
    }
  }
  attr {
    key: "_class"
    value {
      list {
        s: "loc:@import/layer1/weights/Variable"
      }
    }
  }
  attr {
    key: "_output_shapes"
    value {
      list {
        shape {
          dim {
            size: 784
          }
          dim {
            size: 500
          }
        }
      }
    }
  }
  attr {
    key: "use_locking"
    value {
      b: true
    }
  }
  attr {
    key: "validate_shape"
    value {
      b: true
    }
  }
}
node {
  name: "import/layer1/weights/Variable/read"
  op: "Identity"
  input: "import/layer1/weights/Variable"
  device: "/device:CPU:0"
  attr {
    key: "T"
    value {
      type: DT_FLOAT
    }
  }
  attr {
    key: "_class"
    value {
      list {
        s: "loc:@import/layer1/weights/Variable"
      }
    }
  }
  attr {
    key: "_output_shapes"
    value {
      list {
        shape {
          dim {
            size: 784
          }
          dim {
            size: 500
          }
        }
      }
    }
  }
}
node {
  name: "import/layer1/weights/summaries/Rank"
  op: "Const"
  device: "/device:CPU:0"
  attr {
    key: "_output_shapes"
    value {
      list {
        shape {
        }
      }
    }
  }
  attr {
    key: "dtype"
    value {
      type: DT_INT32
    }
  }
  attr {
    key: "value"
    value {
      tensor {
        dtype: DT_INT32
        tensor_shape {
        }
        int_val: 2
      }
    }
  }
}
node {
  name: "import/layer1/weights/summaries/range/start"
  op: "Const"
  device: "/device:CPU:0"
  attr {
    key: "_output_shapes"
    value {
      list {
        shape {
        }
      }
    }
  }
  attr {
    key: "dtype"
    value {
      type: DT_INT32
    }
  }
  attr {
    key: "value"
    value {
      tensor {
        dtype: DT_INT32
        tensor_shape {
        }
        int_val: 0
      }
    }
  }
}
node {
  name: "import/layer1/weights/summaries/range/delta"
  op: "Const"
  device: "/device:CPU:0"
  attr {
    key: "_output_shapes"
    value {
      list {
        shape {
        }
      }
    }
  }
  attr {
    key: "dtype"
    value {
      type: DT_INT32
    }
  }
  attr {
    key: "value"
    value {
      tensor {
        dtype: DT_INT32
        tensor_shape {
        }
        int_val: 1
      }
    }
  }
}
node {
  name: "import/layer1/weights/summaries/range"
  op: "Range"
  input: "import/layer1/weights/summaries/range/start"
  input: "import/layer1/weights/summaries/Rank"
  input: "import/layer1/weights/summaries/range/delta"
  device: "/device:CPU:0"
  attr {
    key: "Tidx"
    value {
      type: DT_INT32
    }
  }
  attr {
    key: "_output_shapes"
    value {
      list {
        shape {
          dim {
            size: 2
          }
        }
      }
    }
  }
}
node {
  name: "import/layer1/weights/summaries/Mean"
  op: "Mean"
  input: "import/layer1/weights/Variable/read"
  input: "import/layer1/weights/summaries/range"
  device: "/device:CPU:0"
  attr {
    key: "T"
    value {
      type: DT_FLOAT
    }
  }
  attr {
    key: "Tidx"
    value {
      type: DT_INT32
    }
  }
  attr {
    key: "_output_shapes"
    value {
      list {
        shape {
        }
      }
    }
  }
  attr {
    key: "keep_dims"
    value {
      b: false
    }
  }
}
node {
  name: "import/layer1/weights/summaries/mean/tags"
  op: "Const"
  device: "/device:CPU:0"
  attr {
    key: "_output_shapes"
    value {
      list {
        shape {
        }
      }
    }
  }
  attr {
    key: "dtype"
    value {
      type: DT_STRING
    }
  }
  attr {
    key: "value"
    value {
      tensor {
        dtype: DT_STRING
        tensor_shape {
        }
        string_val: "layer1/weights/summaries/mean"
      }
    }
  }
}
node {
  name: "import/layer1/weights/summaries/mean"
  op: "ScalarSummary"
  input: "import/layer1/weights/summaries/mean/tags"
  input: "import/layer1/weights/summaries/Mean"
  device: "/device:CPU:0"
  attr {
    key: "T"
    value {
      type: DT_FLOAT
    }
  }
  attr {
    key: "_output_shapes"
    value {
      list {
        shape {
        }
      }
    }
  }
}
node {
  name: "import/layer1/weights/summaries/stddev/sub"
  op: "Sub"
  input: "import/layer1/weights/Variable/read"
  input: "import/layer1/weights/summaries/Mean"
  device: "/device:CPU:0"
  attr {
    key: "T"
    value {
      type: DT_FLOAT
    }
  }
  attr {
    key: "_output_shapes"
    value {
      list {
        shape {
          dim {
            size: 784
          }
          dim {
            size: 500
          }
        }
      }
    }
  }
}
node {
  name: "import/layer1/weights/summaries/stddev/Square"
  op: "Square"
  input: "import/layer1/weights/summaries/stddev/sub"
  device: "/device:CPU:0"
  attr {
    key: "T"
    value {
      type: DT_FLOAT
    }
  }
  attr {
    key: "_output_shapes"
    value {
      list {
        shape {
          dim {
            size: 784
          }
          dim {
            size: 500
          }
        }
      }
    }
  }
}
node {
  name: "import/layer1/weights/summaries/stddev/Const"
  op: "Const"
  device: "/device:CPU:0"
  attr {
    key: "_output_shapes"
    value {
      list {
        shape {
          dim {
            size: 2
          }
        }
      }
    }
  }
  attr {
    key: "dtype"
    value {
      type: DT_INT32
    }
  }
  attr {
    key: "value"
    value {
      tensor {
        dtype: DT_INT32
        tensor_shape {
          dim {
            size: 2
          }
        }
        tensor_content: "\000\000\000\000\001\000\000\000"
      }
    }
  }
}
node {
  name: "import/layer1/weights/summaries/stddev/Mean"
  op: "Mean"
  input: "import/layer1/weights/summaries/stddev/Square"
  input: "import/layer1/weights/summaries/stddev/Const"
  device: "/device:CPU:0"
  attr {
    key: "T"
    value {
      type: DT_FLOAT
    }
  }
  attr {
    key: "Tidx"
    value {
      type: DT_INT32
    }
  }
  attr {
    key: "_output_shapes"
    value {
      list {
        shape {
        }
      }
    }
  }
  attr {
    key: "keep_dims"
    value {
      b: false
    }
  }
}
node {
  name: "import/layer1/weights/summaries/stddev/Sqrt"
  op: "Sqrt"
  input: "import/layer1/weights/summaries/stddev/Mean"
  device: "/device:CPU:0"
  attr {
    key: "T"
    value {
      type: DT_FLOAT
    }
  }
  attr {
    key: "_output_shapes"
    value {
      list {
        shape {
        }
      }
    }
  }
}
node {
  name: "import/layer1/weights/summaries/stddev_1/tags"
  op: "Const"
  device: "/device:CPU:0"
  attr {
    key: "_output_shapes"
    value {
      list {
        shape {
        }
      }
    }
  }
  attr {
    key: "dtype"
    value {
      type: DT_STRING
    }
  }
  attr {
    key: "value"
    value {
      tensor {
        dtype: DT_STRING
        tensor_shape {
        }
        string_val: "layer1/weights/summaries/stddev_1"
      }
    }
  }
}
node {
  name: "import/layer1/weights/summaries/stddev_1"
  op: "ScalarSummary"
  input: "import/layer1/weights/summaries/stddev_1/tags"
  input: "import/layer1/weights/summaries/stddev/Sqrt"
  device: "/device:CPU:0"
  attr {
    key: "T"
    value {
      type: DT_FLOAT
    }
  }
  attr {
    key: "_output_shapes"
    value {
      list {
        shape {
        }
      }
    }
  }
}
node {
  name: "import/layer1/weights/summaries/Rank_1"
  op: "Const"
  device: "/device:CPU:0"
  attr {
    key: "_output_shapes"
    value {
      list {
        shape {
        }
      }
    }
  }
  attr {
    key: "dtype"
    value {
      type: DT_INT32
    }
  }
  attr {
    key: "value"
    value {
      tensor {
        dtype: DT_INT32
        tensor_shape {
        }
        int_val: 2
      }
    }
  }
}
node {
  name: "import/layer1/weights/summaries/range_1/start"
  op: "Const"
  device: "/device:CPU:0"
  attr {
    key: "_output_shapes"
    value {
      list {
        shape {
        }
      }
    }
  }
  attr {
    key: "dtype"
    value {
      type: DT_INT32
    }
  }
  attr {
    key: "value"
    value {
      tensor {
        dtype: DT_INT32
        tensor_shape {
        }
        int_val: 0
      }
    }
  }
}
node {
  name: "import/layer1/weights/summaries/range_1/delta"
  op: "Const"
  device: "/device:CPU:0"
  attr {
    key: "_output_shapes"
    value {
      list {
        shape {
        }
      }
    }
  }
  attr {
    key: "dtype"
    value {
      type: DT_INT32
    }
  }
  attr {
    key: "value"
    value {
      tensor {
        dtype: DT_INT32
        tensor_shape {
        }
        int_val: 1
      }
    }
  }
}
node {
  name: "import/layer1/weights/summaries/range_1"
  op: "Range"
  input: "import/layer1/weights/summaries/range_1/start"
  input: "import/layer1/weights/summaries/Rank_1"
  input: "import/layer1/weights/summaries/range_1/delta"
  device: "/device:CPU:0"
  attr {
    key: "Tidx"
    value {
      type: DT_INT32
    }
  }
  attr {
    key: "_output_shapes"
    value {
      list {
        shape {
          dim {
            size: 2
          }
        }
      }
    }
  }
}
node {
  name: "import/layer1/weights/summaries/Max"
  op: "Max"
  input: "import/layer1/weights/Variable/read"
  input: "import/layer1/weights/summaries/range_1"
  device: "/device:CPU:0"
  attr {
    key: "T"
    value {
      type: DT_FLOAT
    }
  }
  attr {
    key: "Tidx"
    value {
      type: DT_INT32
    }
  }
  attr {
    key: "_output_shapes"
    value {
      list {
        shape {
        }
      }
    }
  }
  attr {
    key: "keep_dims"
    value {
      b: false
    }
  }
}
node {
  name: "import/layer1/weights/summaries/max/tags"
  op: "Const"
  device: "/device:CPU:0"
  attr {
    key: "_output_shapes"
    value {
      list {
        shape {
        }
      }
    }
  }
  attr {
    key: "dtype"
    value {
      type: DT_STRING
    }
  }
  attr {
    key: "value"
    value {
      tensor {
        dtype: DT_STRING
        tensor_shape {
        }
        string_val: "layer1/weights/summaries/max"
      }
    }
  }
}
node {
  name: "import/layer1/weights/summaries/max"
  op: "ScalarSummary"
  input: "import/layer1/weights/summaries/max/tags"
  input: "import/layer1/weights/summaries/Max"
  device: "/device:CPU:0"
  attr {
    key: "T"
    value {
      type: DT_FLOAT
    }
  }
  attr {
    key: "_output_shapes"
    value {
      list {
        shape {
        }
      }
    }
  }
}
node {
  name: "import/layer1/weights/summaries/Rank_2"
  op: "Const"
  device: "/device:CPU:0"
  attr {
    key: "_output_shapes"
    value {
      list {
        shape {
        }
      }
    }
  }
  attr {
    key: "dtype"
    value {
      type: DT_INT32
    }
  }
  attr {
    key: "value"
    value {
      tensor {
        dtype: DT_INT32
        tensor_shape {
        }
        int_val: 2
      }
    }
  }
}
node {
  name: "import/layer1/weights/summaries/range_2/start"
  op: "Const"
  device: "/device:CPU:0"
  attr {
    key: "_output_shapes"
    value {
      list {
        shape {
        }
      }
    }
  }
  attr {
    key: "dtype"
    value {
      type: DT_INT32
    }
  }
  attr {
    key: "value"
    value {
      tensor {
        dtype: DT_INT32
        tensor_shape {
        }
        int_val: 0
      }
    }
  }
}
node {
  name: "import/layer1/weights/summaries/range_2/delta"
  op: "Const"
  device: "/device:CPU:0"
  attr {
    key: "_output_shapes"
    value {
      list {
        shape {
        }
      }
    }
  }
  attr {
    key: "dtype"
    value {
      type: DT_INT32
    }
  }
  attr {
    key: "value"
    value {
      tensor {
        dtype: DT_INT32
        tensor_shape {
        }
        int_val: 1
      }
    }
  }
}
node {
  name: "import/layer1/weights/summaries/range_2"
  op: "Range"
  input: "import/layer1/weights/summaries/range_2/start"
  input: "import/layer1/weights/summaries/Rank_2"
  input: "import/layer1/weights/summaries/range_2/delta"
  device: "/device:CPU:0"
  attr {
    key: "Tidx"
    value {
      type: DT_INT32
    }
  }
  attr {
    key: "_output_shapes"
    value {
      list {
        shape {
          dim {
            size: 2
          }
        }
      }
    }
  }
}
node {
  name: "import/layer1/weights/summaries/Min"
  op: "Min"
  input: "import/layer1/weights/Variable/read"
  input: "import/layer1/weights/summaries/range_2"
  device: "/device:CPU:0"
  attr {
    key: "T"
    value {
      type: DT_FLOAT
    }
  }
  attr {
    key: "Tidx"
    value {
      type: DT_INT32
    }
  }
  attr {
    key: "_output_shapes"
    value {
      list {
        shape {
        }
      }
    }
  }
  attr {
    key: "keep_dims"
    value {
      b: false
    }
  }
}
node {
  name: "import/layer1/weights/summaries/min/tags"
  op: "Const"
  device: "/device:CPU:0"
  attr {
    key: "_output_shapes"
    value {
      list {
        shape {
        }
      }
    }
  }
  attr {
    key: "dtype"
    value {
      type: DT_STRING
    }
  }
  attr {
    key: "value"
    value {
      tensor {
        dtype: DT_STRING
        tensor_shape {
        }
        string_val: "layer1/weights/summaries/min"
      }
    }
  }
}
node {
  name: "import/layer1/weights/summaries/min"
  op: "ScalarSummary"
  input: "import/layer1/weights/summaries/min/tags"
  input: "import/layer1/weights/summaries/Min"
  device: "/device:CPU:0"
  attr {
    key: "T"
    value {
      type: DT_FLOAT
    }
  }
  attr {
    key: "_output_shapes"
    value {
      list {
        shape {
        }
      }
    }
  }
}
node {
  name: "import/layer1/weights/summaries/histogram/tag"
  op: "Const"
  device: "/device:CPU:0"
  attr {
    key: "_output_shapes"
    value {
      list {
        shape {
        }
      }
    }
  }
  attr {
    key: "dtype"
    value {
      type: DT_STRING
    }
  }
  attr {
    key: "value"
    value {
      tensor {
        dtype: DT_STRING
        tensor_shape {
        }
        string_val: "layer1/weights/summaries/histogram"
      }
    }
  }
}
node {
  name: "import/layer1/weights/summaries/histogram"
  op: "HistogramSummary"
  input: "import/layer1/weights/summaries/histogram/tag"
  input: "import/layer1/weights/Variable/read"
  device: "/device:CPU:0"
  attr {
    key: "T"
    value {
      type: DT_FLOAT
    }
  }
  attr {
    key: "_output_shapes"
    value {
      list {
        shape {
        }
      }
    }
  }
}
node {
  name: "import/layer1/biases/Const"
  op: "Const"
  device: "/device:CPU:0"
  attr {
    key: "_output_shapes"
    value {
      list {
        shape {
          dim {
            size: 500
          }
        }
      }
    }
  }
  attr {
    key: "dtype"
    value {
      type: DT_FLOAT
    }
  }
  attr {
    key: "value"
    value {
      tensor {
        dtype: DT_FLOAT
        tensor_shape {
          dim {
            size: 500
          }
        }
        float_val: 0.10000000149011612
      }
    }
  }
}
node {
  name: "import/layer1/biases/Variable"
  op: "VariableV2"
  device: "/device:CPU:0"
  attr {
    key: "_output_shapes"
    value {
      list {
        shape {
          dim {
            size: 500
          }
        }
      }
    }
  }
  attr {
    key: "container"
    value {
      s: ""
    }
  }
  attr {
    key: "dtype"
    value {
      type: DT_FLOAT
    }
  }
  attr {
    key: "shape"
    value {
      shape {
        dim {
          size: 500
        }
      }
    }
  }
  attr {
    key: "shared_name"
    value {
      s: ""
    }
  }
}
node {
  name: "import/layer1/biases/Variable/Assign"
  op: "Assign"
  input: "import/layer1/biases/Variable"
  input: "import/layer1/biases/Const"
  device: "/device:CPU:0"
  attr {
    key: "T"
    value {
      type: DT_FLOAT
    }
  }
  attr {
    key: "_class"
    value {
      list {
        s: "loc:@import/layer1/biases/Variable"
      }
    }
  }
  attr {
    key: "_output_shapes"
    value {
      list {
        shape {
          dim {
            size: 500
          }
        }
      }
    }
  }
  attr {
    key: "use_locking"
    value {
      b: true
    }
  }
  attr {
    key: "validate_shape"
    value {
      b: true
    }
  }
}
node {
  name: "import/layer1/biases/Variable/read"
  op: "Identity"
  input: "import/layer1/biases/Variable"
  device: "/device:CPU:0"
  attr {
    key: "T"
    value {
      type: DT_FLOAT
    }
  }
  attr {
    key: "_class"
    value {
      list {
        s: "loc:@import/layer1/biases/Variable"
      }
    }
  }
  attr {
    key: "_output_shapes"
    value {
      list {
        shape {
          dim {
            size: 500
          }
        }
      }
    }
  }
}
node {
  name: "import/layer1/biases/summaries/Rank"
  op: "Const"
  device: "/device:CPU:0"
  attr {
    key: "_output_shapes"
    value {
      list {
        shape {
        }
      }
    }
  }
  attr {
    key: "dtype"
    value {
      type: DT_INT32
    }
  }
  attr {
    key: "value"
    value {
      tensor {
        dtype: DT_INT32
        tensor_shape {
        }
        int_val: 1
      }
    }
  }
}
node {
  name: "import/layer1/biases/summaries/range/start"
  op: "Const"
  device: "/device:CPU:0"
  attr {
    key: "_output_shapes"
    value {
      list {
        shape {
        }
      }
    }
  }
  attr {
    key: "dtype"
    value {
      type: DT_INT32
    }
  }
  attr {
    key: "value"
    value {
      tensor {
        dtype: DT_INT32
        tensor_shape {
        }
        int_val: 0
      }
    }
  }
}
node {
  name: "import/layer1/biases/summaries/range/delta"
  op: "Const"
  device: "/device:CPU:0"
  attr {
    key: "_output_shapes"
    value {
      list {
        shape {
        }
      }
    }
  }
  attr {
    key: "dtype"
    value {
      type: DT_INT32
    }
  }
  attr {
    key: "value"
    value {
      tensor {
        dtype: DT_INT32
        tensor_shape {
        }
        int_val: 1
      }
    }
  }
}
node {
  name: "import/layer1/biases/summaries/range"
  op: "Range"
  input: "import/layer1/biases/summaries/range/start"
  input: "import/layer1/biases/summaries/Rank"
  input: "import/layer1/biases/summaries/range/delta"
  device: "/device:CPU:0"
  attr {
    key: "Tidx"
    value {
      type: DT_INT32
    }
  }
  attr {
    key: "_output_shapes"
    value {
      list {
        shape {
          dim {
            size: 1
          }
        }
      }
    }
  }
}
node {
  name: "import/layer1/biases/summaries/Mean"
  op: "Mean"
  input: "import/layer1/biases/Variable/read"
  input: "import/layer1/biases/summaries/range"
  device: "/device:CPU:0"
  attr {
    key: "T"
    value {
      type: DT_FLOAT
    }
  }
  attr {
    key: "Tidx"
    value {
      type: DT_INT32
    }
  }
  attr {
    key: "_output_shapes"
    value {
      list {
        shape {
        }
      }
    }
  }
  attr {
    key: "keep_dims"
    value {
      b: false
    }
  }
}
node {
  name: "import/layer1/biases/summaries/mean/tags"
  op: "Const"
  device: "/device:CPU:0"
  attr {
    key: "_output_shapes"
    value {
      list {
        shape {
        }
      }
    }
  }
  attr {
    key: "dtype"
    value {
      type: DT_STRING
    }
  }
  attr {
    key: "value"
    value {
      tensor {
        dtype: DT_STRING
        tensor_shape {
        }
        string_val: "layer1/biases/summaries/mean"
      }
    }
  }
}
node {
  name: "import/layer1/biases/summaries/mean"
  op: "ScalarSummary"
  input: "import/layer1/biases/summaries/mean/tags"
  input: "import/layer1/biases/summaries/Mean"
  device: "/device:CPU:0"
  attr {
    key: "T"
    value {
      type: DT_FLOAT
    }
  }
  attr {
    key: "_output_shapes"
    value {
      list {
        shape {
        }
      }
    }
  }
}
node {
  name: "import/layer1/biases/summaries/stddev/sub"
  op: "Sub"
  input: "import/layer1/biases/Variable/read"
  input: "import/layer1/biases/summaries/Mean"
  device: "/device:CPU:0"
  attr {
    key: "T"
    value {
      type: DT_FLOAT
    }
  }
  attr {
    key: "_output_shapes"
    value {
      list {
        shape {
          dim {
            size: 500
          }
        }
      }
    }
  }
}
node {
  name: "import/layer1/biases/summaries/stddev/Square"
  op: "Square"
  input: "import/layer1/biases/summaries/stddev/sub"
  device: "/device:CPU:0"
  attr {
    key: "T"
    value {
      type: DT_FLOAT
    }
  }
  attr {
    key: "_output_shapes"
    value {
      list {
        shape {
          dim {
            size: 500
          }
        }
      }
    }
  }
}
node {
  name: "import/layer1/biases/summaries/stddev/Const"
  op: "Const"
  device: "/device:CPU:0"
  attr {
    key: "_output_shapes"
    value {
      list {
        shape {
          dim {
            size: 1
          }
        }
      }
    }
  }
  attr {
    key: "dtype"
    value {
      type: DT_INT32
    }
  }
  attr {
    key: "value"
    value {
      tensor {
        dtype: DT_INT32
        tensor_shape {
          dim {
            size: 1
          }
        }
        int_val: 0
      }
    }
  }
}
node {
  name: "import/layer1/biases/summaries/stddev/Mean"
  op: "Mean"
  input: "import/layer1/biases/summaries/stddev/Square"
  input: "import/layer1/biases/summaries/stddev/Const"
  device: "/device:CPU:0"
  attr {
    key: "T"
    value {
      type: DT_FLOAT
    }
  }
  attr {
    key: "Tidx"
    value {
      type: DT_INT32
    }
  }
  attr {
    key: "_output_shapes"
    value {
      list {
        shape {
        }
      }
    }
  }
  attr {
    key: "keep_dims"
    value {
      b: false
    }
  }
}
node {
  name: "import/layer1/biases/summaries/stddev/Sqrt"
  op: "Sqrt"
  input: "import/layer1/biases/summaries/stddev/Mean"
  device: "/device:CPU:0"
  attr {
    key: "T"
    value {
      type: DT_FLOAT
    }
  }
  attr {
    key: "_output_shapes"
    value {
      list {
        shape {
        }
      }
    }
  }
}
node {
  name: "import/layer1/biases/summaries/stddev_1/tags"
  op: "Const"
  device: "/device:CPU:0"
  attr {
    key: "_output_shapes"
    value {
      list {
        shape {
        }
      }
    }
  }
  attr {
    key: "dtype"
    value {
      type: DT_STRING
    }
  }
  attr {
    key: "value"
    value {
      tensor {
        dtype: DT_STRING
        tensor_shape {
        }
        string_val: "layer1/biases/summaries/stddev_1"
      }
    }
  }
}
node {
  name: "import/layer1/biases/summaries/stddev_1"
  op: "ScalarSummary"
  input: "import/layer1/biases/summaries/stddev_1/tags"
  input: "import/layer1/biases/summaries/stddev/Sqrt"
  device: "/device:CPU:0"
  attr {
    key: "T"
    value {
      type: DT_FLOAT
    }
  }
  attr {
    key: "_output_shapes"
    value {
      list {
        shape {
        }
      }
    }
  }
}
node {
  name: "import/layer1/biases/summaries/Rank_1"
  op: "Const"
  device: "/device:CPU:0"
  attr {
    key: "_output_shapes"
    value {
      list {
        shape {
        }
      }
    }
  }
  attr {
    key: "dtype"
    value {
      type: DT_INT32
    }
  }
  attr {
    key: "value"
    value {
      tensor {
        dtype: DT_INT32
        tensor_shape {
        }
        int_val: 1
      }
    }
  }
}
node {
  name: "import/layer1/biases/summaries/range_1/start"
  op: "Const"
  device: "/device:CPU:0"
  attr {
    key: "_output_shapes"
    value {
      list {
        shape {
        }
      }
    }
  }
  attr {
    key: "dtype"
    value {
      type: DT_INT32
    }
  }
  attr {
    key: "value"
    value {
      tensor {
        dtype: DT_INT32
        tensor_shape {
        }
        int_val: 0
      }
    }
  }
}
node {
  name: "import/layer1/biases/summaries/range_1/delta"
  op: "Const"
  device: "/device:CPU:0"
  attr {
    key: "_output_shapes"
    value {
      list {
        shape {
        }
      }
    }
  }
  attr {
    key: "dtype"
    value {
      type: DT_INT32
    }
  }
  attr {
    key: "value"
    value {
      tensor {
        dtype: DT_INT32
        tensor_shape {
        }
        int_val: 1
      }
    }
  }
}
node {
  name: "import/layer1/biases/summaries/range_1"
  op: "Range"
  input: "import/layer1/biases/summaries/range_1/start"
  input: "import/layer1/biases/summaries/Rank_1"
  input: "import/layer1/biases/summaries/range_1/delta"
  device: "/device:CPU:0"
  attr {
    key: "Tidx"
    value {
      type: DT_INT32
    }
  }
  attr {
    key: "_output_shapes"
    value {
      list {
        shape {
          dim {
            size: 1
          }
        }
      }
    }
  }
}
node {
  name: "import/layer1/biases/summaries/Max"
  op: "Max"
  input: "import/layer1/biases/Variable/read"
  input: "import/layer1/biases/summaries/range_1"
  device: "/device:CPU:0"
  attr {
    key: "T"
    value {
      type: DT_FLOAT
    }
  }
  attr {
    key: "Tidx"
    value {
      type: DT_INT32
    }
  }
  attr {
    key: "_output_shapes"
    value {
      list {
        shape {
        }
      }
    }
  }
  attr {
    key: "keep_dims"
    value {
      b: false
    }
  }
}
node {
  name: "import/layer1/biases/summaries/max/tags"
  op: "Const"
  device: "/device:CPU:0"
  attr {
    key: "_output_shapes"
    value {
      list {
        shape {
        }
      }
    }
  }
  attr {
    key: "dtype"
    value {
      type: DT_STRING
    }
  }
  attr {
    key: "value"
    value {
      tensor {
        dtype: DT_STRING
        tensor_shape {
        }
        string_val: "layer1/biases/summaries/max"
      }
    }
  }
}
node {
  name: "import/layer1/biases/summaries/max"
  op: "ScalarSummary"
  input: "import/layer1/biases/summaries/max/tags"
  input: "import/layer1/biases/summaries/Max"
  device: "/device:CPU:0"
  attr {
    key: "T"
    value {
      type: DT_FLOAT
    }
  }
  attr {
    key: "_output_shapes"
    value {
      list {
        shape {
        }
      }
    }
  }
}
node {
  name: "import/layer1/biases/summaries/Rank_2"
  op: "Const"
  device: "/device:CPU:0"
  attr {
    key: "_output_shapes"
    value {
      list {
        shape {
        }
      }
    }
  }
  attr {
    key: "dtype"
    value {
      type: DT_INT32
    }
  }
  attr {
    key: "value"
    value {
      tensor {
        dtype: DT_INT32
        tensor_shape {
        }
        int_val: 1
      }
    }
  }
}
node {
  name: "import/layer1/biases/summaries/range_2/start"
  op: "Const"
  device: "/device:CPU:0"
  attr {
    key: "_output_shapes"
    value {
      list {
        shape {
        }
      }
    }
  }
  attr {
    key: "dtype"
    value {
      type: DT_INT32
    }
  }
  attr {
    key: "value"
    value {
      tensor {
        dtype: DT_INT32
        tensor_shape {
        }
        int_val: 0
      }
    }
  }
}
node {
  name: "import/layer1/biases/summaries/range_2/delta"
  op: "Const"
  device: "/device:CPU:0"
  attr {
    key: "_output_shapes"
    value {
      list {
        shape {
        }
      }
    }
  }
  attr {
    key: "dtype"
    value {
      type: DT_INT32
    }
  }
  attr {
    key: "value"
    value {
      tensor {
        dtype: DT_INT32
        tensor_shape {
        }
        int_val: 1
      }
    }
  }
}
node {
  name: "import/layer1/biases/summaries/range_2"
  op: "Range"
  input: "import/layer1/biases/summaries/range_2/start"
  input: "import/layer1/biases/summaries/Rank_2"
  input: "import/layer1/biases/summaries/range_2/delta"
  device: "/device:CPU:0"
  attr {
    key: "Tidx"
    value {
      type: DT_INT32
    }
  }
  attr {
    key: "_output_shapes"
    value {
      list {
        shape {
          dim {
            size: 1
          }
        }
      }
    }
  }
}
node {
  name: "import/layer1/biases/summaries/Min"
  op: "Min"
  input: "import/layer1/biases/Variable/read"
  input: "import/layer1/biases/summaries/range_2"
  device: "/device:CPU:0"
  attr {
    key: "T"
    value {
      type: DT_FLOAT
    }
  }
  attr {
    key: "Tidx"
    value {
      type: DT_INT32
    }
  }
  attr {
    key: "_output_shapes"
    value {
      list {
        shape {
        }
      }
    }
  }
  attr {
    key: "keep_dims"
    value {
      b: false
    }
  }
}
node {
  name: "import/layer1/biases/summaries/min/tags"
  op: "Const"
  device: "/device:CPU:0"
  attr {
    key: "_output_shapes"
    value {
      list {
        shape {
        }
      }
    }
  }
  attr {
    key: "dtype"
    value {
      type: DT_STRING
    }
  }
  attr {
    key: "value"
    value {
      tensor {
        dtype: DT_STRING
        tensor_shape {
        }
        string_val: "layer1/biases/summaries/min"
      }
    }
  }
}
node {
  name: "import/layer1/biases/summaries/min"
  op: "ScalarSummary"
  input: "import/layer1/biases/summaries/min/tags"
  input: "import/layer1/biases/summaries/Min"
  device: "/device:CPU:0"
  attr {
    key: "T"
    value {
      type: DT_FLOAT
    }
  }
  attr {
    key: "_output_shapes"
    value {
      list {
        shape {
        }
      }
    }
  }
}
node {
  name: "import/layer1/biases/summaries/histogram/tag"
  op: "Const"
  device: "/device:CPU:0"
  attr {
    key: "_output_shapes"
    value {
      list {
        shape {
        }
      }
    }
  }
  attr {
    key: "dtype"
    value {
      type: DT_STRING
    }
  }
  attr {
    key: "value"
    value {
      tensor {
        dtype: DT_STRING
        tensor_shape {
        }
        string_val: "layer1/biases/summaries/histogram"
      }
    }
  }
}
node {
  name: "import/layer1/biases/summaries/histogram"
  op: "HistogramSummary"
  input: "import/layer1/biases/summaries/histogram/tag"
  input: "import/layer1/biases/Variable/read"
  device: "/device:CPU:0"
  attr {
    key: "T"
    value {
      type: DT_FLOAT
    }
  }
  attr {
    key: "_output_shapes"
    value {
      list {
        shape {
        }
      }
    }
  }
}
node {
  name: "import/layer1/Wx_plus_b/MatMul"
  op: "MatMul"
  input: "import/input/x-input"
  input: "import/layer1/weights/Variable/read"
  device: "/device:CPU:0"
  attr {
    key: "T"
    value {
      type: DT_FLOAT
    }
  }
  attr {
    key: "_output_shapes"
    value {
      list {
        shape {
          dim {
            size: -1
          }
          dim {
            size: 500
          }
        }
      }
    }
  }
  attr {
    key: "transpose_a"
    value {
      b: false
    }
  }
  attr {
    key: "transpose_b"
    value {
      b: false
    }
  }
}
node {
  name: "import/layer1/Wx_plus_b/add"
  op: "Add"
  input: "import/layer1/Wx_plus_b/MatMul"
  input: "import/layer1/biases/Variable/read"
  device: "/device:CPU:0"
  attr {
    key: "T"
    value {
      type: DT_FLOAT
    }
  }
  attr {
    key: "_output_shapes"
    value {
      list {
        shape {
          dim {
            size: -1
          }
          dim {
            size: 500
          }
        }
      }
    }
  }
}
node {
  name: "import/layer1/Wx_plus_b/pre_activations/tag"
  op: "Const"
  device: "/device:CPU:0"
  attr {
    key: "_output_shapes"
    value {
      list {
        shape {
        }
      }
    }
  }
  attr {
    key: "dtype"
    value {
      type: DT_STRING
    }
  }
  attr {
    key: "value"
    value {
      tensor {
        dtype: DT_STRING
        tensor_shape {
        }
        string_val: "layer1/Wx_plus_b/pre_activations"
      }
    }
  }
}
node {
  name: "import/layer1/Wx_plus_b/pre_activations"
  op: "HistogramSummary"
  input: "import/layer1/Wx_plus_b/pre_activations/tag"
  input: "import/layer1/Wx_plus_b/add"
  device: "/device:CPU:0"
  attr {
    key: "T"
    value {
      type: DT_FLOAT
    }
  }
  attr {
    key: "_output_shapes"
    value {
      list {
        shape {
        }
      }
    }
  }
}
node {
  name: "import/layer1/activation"
  op: "Relu"
  input: "import/layer1/Wx_plus_b/add"
  device: "/device:CPU:0"
  attr {
    key: "T"
    value {
      type: DT_FLOAT
    }
  }
  attr {
    key: "_output_shapes"
    value {
      list {
        shape {
          dim {
            size: -1
          }
          dim {
            size: 500
          }
        }
      }
    }
  }
}
node {
  name: "import/layer1/activations/tag"
  op: "Const"
  device: "/device:CPU:0"
  attr {
    key: "_output_shapes"
    value {
      list {
        shape {
        }
      }
    }
  }
  attr {
    key: "dtype"
    value {
      type: DT_STRING
    }
  }
  attr {
    key: "value"
    value {
      tensor {
        dtype: DT_STRING
        tensor_shape {
        }
        string_val: "layer1/activations"
      }
    }
  }
}
node {
  name: "import/layer1/activations"
  op: "HistogramSummary"
  input: "import/layer1/activations/tag"
  input: "import/layer1/activation"
  device: "/device:CPU:0"
  attr {
    key: "T"
    value {
      type: DT_FLOAT
    }
  }
  attr {
    key: "_output_shapes"
    value {
      list {
        shape {
        }
      }
    }
  }
}
node {
  name: "import/dropout/Placeholder"
  op: "Placeholder"
  device: "/device:CPU:0"
  attr {
    key: "_output_shapes"
    value {
      list {
        shape {
          unknown_rank: true
        }
      }
    }
  }
  attr {
    key: "dtype"
    value {
      type: DT_FLOAT
    }
  }
  attr {
    key: "shape"
    value {
      shape {
        unknown_rank: true
      }
    }
  }
}
node {
  name: "import/dropout/dropout_keep_probability/tags"
  op: "Const"
  device: "/device:CPU:0"
  attr {
    key: "_output_shapes"
    value {
      list {
        shape {
        }
      }
    }
  }
  attr {
    key: "dtype"
    value {
      type: DT_STRING
    }
  }
  attr {
    key: "value"
    value {
      tensor {
        dtype: DT_STRING
        tensor_shape {
        }
        string_val: "dropout/dropout_keep_probability"
      }
    }
  }
}
node {
  name: "import/dropout/dropout_keep_probability"
  op: "ScalarSummary"
  input: "import/dropout/dropout_keep_probability/tags"
  input: "import/dropout/Placeholder"
  device: "/device:CPU:0"
  attr {
    key: "T"
    value {
      type: DT_FLOAT
    }
  }
  attr {
    key: "_output_shapes"
    value {
      list {
        shape {
        }
      }
    }
  }
}
node {
  name: "import/dropout/dropout/Shape"
  op: "Shape"
  input: "import/layer1/activation"
  device: "/device:CPU:0"
  attr {
    key: "T"
    value {
      type: DT_FLOAT
    }
  }
  attr {
    key: "_output_shapes"
    value {
      list {
        shape {
          dim {
            size: 2
          }
        }
      }
    }
  }
  attr {
    key: "out_type"
    value {
      type: DT_INT32
    }
  }
}
node {
  name: "import/dropout/dropout/random_uniform/min"
  op: "Const"
  device: "/device:CPU:0"
  attr {
    key: "_output_shapes"
    value {
      list {
        shape {
        }
      }
    }
  }
  attr {
    key: "dtype"
    value {
      type: DT_FLOAT
    }
  }
  attr {
    key: "value"
    value {
      tensor {
        dtype: DT_FLOAT
        tensor_shape {
        }
        float_val: 0.0
      }
    }
  }
}
node {
  name: "import/dropout/dropout/random_uniform/max"
  op: "Const"
  device: "/device:CPU:0"
  attr {
    key: "_output_shapes"
    value {
      list {
        shape {
        }
      }
    }
  }
  attr {
    key: "dtype"
    value {
      type: DT_FLOAT
    }
  }
  attr {
    key: "value"
    value {
      tensor {
        dtype: DT_FLOAT
        tensor_shape {
        }
        float_val: 1.0
      }
    }
  }
}
node {
  name: "import/dropout/dropout/random_uniform/RandomUniform"
  op: "RandomUniform"
  input: "import/dropout/dropout/Shape"
  device: "/device:CPU:0"
  attr {
    key: "T"
    value {
      type: DT_INT32
    }
  }
  attr {
    key: "_output_shapes"
    value {
      list {
        shape {
          dim {
            size: -1
          }
          dim {
            size: 500
          }
        }
      }
    }
  }
  attr {
    key: "dtype"
    value {
      type: DT_FLOAT
    }
  }
  attr {
    key: "seed"
    value {
      i: 0
    }
  }
  attr {
    key: "seed2"
    value {
      i: 0
    }
  }
}
node {
  name: "import/dropout/dropout/random_uniform/sub"
  op: "Sub"
  input: "import/dropout/dropout/random_uniform/max"
  input: "import/dropout/dropout/random_uniform/min"
  device: "/device:CPU:0"
  attr {
    key: "T"
    value {
      type: DT_FLOAT
    }
  }
  attr {
    key: "_output_shapes"
    value {
      list {
        shape {
        }
      }
    }
  }
}
node {
  name: "import/dropout/dropout/random_uniform/mul"
  op: "Mul"
  input: "import/dropout/dropout/random_uniform/RandomUniform"
  input: "import/dropout/dropout/random_uniform/sub"
  device: "/device:CPU:0"
  attr {
    key: "T"
    value {
      type: DT_FLOAT
    }
  }
  attr {
    key: "_output_shapes"
    value {
      list {
        shape {
          dim {
            size: -1
          }
          dim {
            size: 500
          }
        }
      }
    }
  }
}
node {
  name: "import/dropout/dropout/random_uniform"
  op: "Add"
  input: "import/dropout/dropout/random_uniform/mul"
  input: "import/dropout/dropout/random_uniform/min"
  device: "/device:CPU:0"
  attr {
    key: "T"
    value {
      type: DT_FLOAT
    }
  }
  attr {
    key: "_output_shapes"
    value {
      list {
        shape {
          dim {
            size: -1
          }
          dim {
            size: 500
          }
        }
      }
    }
  }
}
node {
  name: "import/dropout/dropout/add"
  op: "Add"
  input: "import/dropout/Placeholder"
  input: "import/dropout/dropout/random_uniform"
  device: "/device:CPU:0"
  attr {
    key: "T"
    value {
      type: DT_FLOAT
    }
  }
  attr {
    key: "_output_shapes"
    value {
      list {
        shape {
          unknown_rank: true
        }
      }
    }
  }
}
node {
  name: "import/dropout/dropout/Floor"
  op: "Floor"
  input: "import/dropout/dropout/add"
  device: "/device:CPU:0"
  attr {
    key: "T"
    value {
      type: DT_FLOAT
    }
  }
  attr {
    key: "_output_shapes"
    value {
      list {
        shape {
          unknown_rank: true
        }
      }
    }
  }
}
node {
  name: "import/dropout/dropout/div"
  op: "RealDiv"
  input: "import/layer1/activation"
  input: "import/dropout/Placeholder"
  device: "/device:CPU:0"
  attr {
    key: "T"
    value {
      type: DT_FLOAT
    }
  }
  attr {
    key: "_output_shapes"
    value {
      list {
        shape {
          unknown_rank: true
        }
      }
    }
  }
}
node {
  name: "import/dropout/dropout/mul"
  op: "Mul"
  input: "import/dropout/dropout/div"
  input: "import/dropout/dropout/Floor"
  device: "/device:CPU:0"
  attr {
    key: "T"
    value {
      type: DT_FLOAT
    }
  }
  attr {
    key: "_output_shapes"
    value {
      list {
        shape {
          unknown_rank: true
        }
      }
    }
  }
}
node {
  name: "import/layer2/weights/truncated_normal/shape"
  op: "Const"
  device: "/device:CPU:0"
  attr {
    key: "_output_shapes"
    value {
      list {
        shape {
          dim {
            size: 2
          }
        }
      }
    }
  }
  attr {
    key: "dtype"
    value {
      type: DT_INT32
    }
  }
  attr {
    key: "value"
    value {
      tensor {
        dtype: DT_INT32
        tensor_shape {
          dim {
            size: 2
          }
        }
        tensor_content: "\364\001\000\000\n\000\000\000"
      }
    }
  }
}
node {
  name: "import/layer2/weights/truncated_normal/mean"
  op: "Const"
  device: "/device:CPU:0"
  attr {
    key: "_output_shapes"
    value {
      list {
        shape {
        }
      }
    }
  }
  attr {
    key: "dtype"
    value {
      type: DT_FLOAT
    }
  }
  attr {
    key: "value"
    value {
      tensor {
        dtype: DT_FLOAT
        tensor_shape {
        }
        float_val: 0.0
      }
    }
  }
}
node {
  name: "import/layer2/weights/truncated_normal/stddev"
  op: "Const"
  device: "/device:CPU:0"
  attr {
    key: "_output_shapes"
    value {
      list {
        shape {
        }
      }
    }
  }
  attr {
    key: "dtype"
    value {
      type: DT_FLOAT
    }
  }
  attr {
    key: "value"
    value {
      tensor {
        dtype: DT_FLOAT
        tensor_shape {
        }
        float_val: 0.10000000149011612
      }
    }
  }
}
node {
  name: "import/layer2/weights/truncated_normal/TruncatedNormal"
  op: "TruncatedNormal"
  input: "import/layer2/weights/truncated_normal/shape"
  device: "/device:CPU:0"
  attr {
    key: "T"
    value {
      type: DT_INT32
    }
  }
  attr {
    key: "_output_shapes"
    value {
      list {
        shape {
          dim {
            size: 500
          }
          dim {
            size: 10
          }
        }
      }
    }
  }
  attr {
    key: "dtype"
    value {
      type: DT_FLOAT
    }
  }
  attr {
    key: "seed"
    value {
      i: 0
    }
  }
  attr {
    key: "seed2"
    value {
      i: 0
    }
  }
}
node {
  name: "import/layer2/weights/truncated_normal/mul"
  op: "Mul"
  input: "import/layer2/weights/truncated_normal/TruncatedNormal"
  input: "import/layer2/weights/truncated_normal/stddev"
  device: "/device:CPU:0"
  attr {
    key: "T"
    value {
      type: DT_FLOAT
    }
  }
  attr {
    key: "_output_shapes"
    value {
      list {
        shape {
          dim {
            size: 500
          }
          dim {
            size: 10
          }
        }
      }
    }
  }
}
node {
  name: "import/layer2/weights/truncated_normal"
  op: "Add"
  input: "import/layer2/weights/truncated_normal/mul"
  input: "import/layer2/weights/truncated_normal/mean"
  device: "/device:CPU:0"
  attr {
    key: "T"
    value {
      type: DT_FLOAT
    }
  }
  attr {
    key: "_output_shapes"
    value {
      list {
        shape {
          dim {
            size: 500
          }
          dim {
            size: 10
          }
        }
      }
    }
  }
}
node {
  name: "import/layer2/weights/Variable"
  op: "VariableV2"
  device: "/device:CPU:0"
  attr {
    key: "_output_shapes"
    value {
      list {
        shape {
          dim {
            size: 500
          }
          dim {
            size: 10
          }
        }
      }
    }
  }
  attr {
    key: "container"
    value {
      s: ""
    }
  }
  attr {
    key: "dtype"
    value {
      type: DT_FLOAT
    }
  }
  attr {
    key: "shape"
    value {
      shape {
        dim {
          size: 500
        }
        dim {
          size: 10
        }
      }
    }
  }
  attr {
    key: "shared_name"
    value {
      s: ""
    }
  }
}
node {
  name: "import/layer2/weights/Variable/Assign"
  op: "Assign"
  input: "import/layer2/weights/Variable"
  input: "import/layer2/weights/truncated_normal"
  device: "/device:CPU:0"
  attr {
    key: "T"
    value {
      type: DT_FLOAT
    }
  }
  attr {
    key: "_class"
    value {
      list {
        s: "loc:@import/layer2/weights/Variable"
      }
    }
  }
  attr {
    key: "_output_shapes"
    value {
      list {
        shape {
          dim {
            size: 500
          }
          dim {
            size: 10
          }
        }
      }
    }
  }
  attr {
    key: "use_locking"
    value {
      b: true
    }
  }
  attr {
    key: "validate_shape"
    value {
      b: true
    }
  }
}
node {
  name: "import/layer2/weights/Variable/read"
  op: "Identity"
  input: "import/layer2/weights/Variable"
  device: "/device:CPU:0"
  attr {
    key: "T"
    value {
      type: DT_FLOAT
    }
  }
  attr {
    key: "_class"
    value {
      list {
        s: "loc:@import/layer2/weights/Variable"
      }
    }
  }
  attr {
    key: "_output_shapes"
    value {
      list {
        shape {
          dim {
            size: 500
          }
          dim {
            size: 10
          }
        }
      }
    }
  }
}
node {
  name: "import/layer2/weights/summaries/Rank"
  op: "Const"
  device: "/device:CPU:0"
  attr {
    key: "_output_shapes"
    value {
      list {
        shape {
        }
      }
    }
  }
  attr {
    key: "dtype"
    value {
      type: DT_INT32
    }
  }
  attr {
    key: "value"
    value {
      tensor {
        dtype: DT_INT32
        tensor_shape {
        }
        int_val: 2
      }
    }
  }
}
node {
  name: "import/layer2/weights/summaries/range/start"
  op: "Const"
  device: "/device:CPU:0"
  attr {
    key: "_output_shapes"
    value {
      list {
        shape {
        }
      }
    }
  }
  attr {
    key: "dtype"
    value {
      type: DT_INT32
    }
  }
  attr {
    key: "value"
    value {
      tensor {
        dtype: DT_INT32
        tensor_shape {
        }
        int_val: 0
      }
    }
  }
}
node {
  name: "import/layer2/weights/summaries/range/delta"
  op: "Const"
  device: "/device:CPU:0"
  attr {
    key: "_output_shapes"
    value {
      list {
        shape {
        }
      }
    }
  }
  attr {
    key: "dtype"
    value {
      type: DT_INT32
    }
  }
  attr {
    key: "value"
    value {
      tensor {
        dtype: DT_INT32
        tensor_shape {
        }
        int_val: 1
      }
    }
  }
}
node {
  name: "import/layer2/weights/summaries/range"
  op: "Range"
  input: "import/layer2/weights/summaries/range/start"
  input: "import/layer2/weights/summaries/Rank"
  input: "import/layer2/weights/summaries/range/delta"
  device: "/device:CPU:0"
  attr {
    key: "Tidx"
    value {
      type: DT_INT32
    }
  }
  attr {
    key: "_output_shapes"
    value {
      list {
        shape {
          dim {
            size: 2
          }
        }
      }
    }
  }
}
node {
  name: "import/layer2/weights/summaries/Mean"
  op: "Mean"
  input: "import/layer2/weights/Variable/read"
  input: "import/layer2/weights/summaries/range"
  device: "/device:CPU:0"
  attr {
    key: "T"
    value {
      type: DT_FLOAT
    }
  }
  attr {
    key: "Tidx"
    value {
      type: DT_INT32
    }
  }
  attr {
    key: "_output_shapes"
    value {
      list {
        shape {
        }
      }
    }
  }
  attr {
    key: "keep_dims"
    value {
      b: false
    }
  }
}
node {
  name: "import/layer2/weights/summaries/mean/tags"
  op: "Const"
  device: "/device:CPU:0"
  attr {
    key: "_output_shapes"
    value {
      list {
        shape {
        }
      }
    }
  }
  attr {
    key: "dtype"
    value {
      type: DT_STRING
    }
  }
  attr {
    key: "value"
    value {
      tensor {
        dtype: DT_STRING
        tensor_shape {
        }
        string_val: "layer2/weights/summaries/mean"
      }
    }
  }
}
node {
  name: "import/layer2/weights/summaries/mean"
  op: "ScalarSummary"
  input: "import/layer2/weights/summaries/mean/tags"
  input: "import/layer2/weights/summaries/Mean"
  device: "/device:CPU:0"
  attr {
    key: "T"
    value {
      type: DT_FLOAT
    }
  }
  attr {
    key: "_output_shapes"
    value {
      list {
        shape {
        }
      }
    }
  }
}
node {
  name: "import/layer2/weights/summaries/stddev/sub"
  op: "Sub"
  input: "import/layer2/weights/Variable/read"
  input: "import/layer2/weights/summaries/Mean"
  device: "/device:CPU:0"
  attr {
    key: "T"
    value {
      type: DT_FLOAT
    }
  }
  attr {
    key: "_output_shapes"
    value {
      list {
        shape {
          dim {
            size: 500
          }
          dim {
            size: 10
          }
        }
      }
    }
  }
}
node {
  name: "import/layer2/weights/summaries/stddev/Square"
  op: "Square"
  input: "import/layer2/weights/summaries/stddev/sub"
  device: "/device:CPU:0"
  attr {
    key: "T"
    value {
      type: DT_FLOAT
    }
  }
  attr {
    key: "_output_shapes"
    value {
      list {
        shape {
          dim {
            size: 500
          }
          dim {
            size: 10
          }
        }
      }
    }
  }
}
node {
  name: "import/layer2/weights/summaries/stddev/Const"
  op: "Const"
  device: "/device:CPU:0"
  attr {
    key: "_output_shapes"
    value {
      list {
        shape {
          dim {
            size: 2
          }
        }
      }
    }
  }
  attr {
    key: "dtype"
    value {
      type: DT_INT32
    }
  }
  attr {
    key: "value"
    value {
      tensor {
        dtype: DT_INT32
        tensor_shape {
          dim {
            size: 2
          }
        }
        tensor_content: "\000\000\000\000\001\000\000\000"
      }
    }
  }
}
node {
  name: "import/layer2/weights/summaries/stddev/Mean"
  op: "Mean"
  input: "import/layer2/weights/summaries/stddev/Square"
  input: "import/layer2/weights/summaries/stddev/Const"
  device: "/device:CPU:0"
  attr {
    key: "T"
    value {
      type: DT_FLOAT
    }
  }
  attr {
    key: "Tidx"
    value {
      type: DT_INT32
    }
  }
  attr {
    key: "_output_shapes"
    value {
      list {
        shape {
        }
      }
    }
  }
  attr {
    key: "keep_dims"
    value {
      b: false
    }
  }
}
node {
  name: "import/layer2/weights/summaries/stddev/Sqrt"
  op: "Sqrt"
  input: "import/layer2/weights/summaries/stddev/Mean"
  device: "/device:CPU:0"
  attr {
    key: "T"
    value {
      type: DT_FLOAT
    }
  }
  attr {
    key: "_output_shapes"
    value {
      list {
        shape {
        }
      }
    }
  }
}
node {
  name: "import/layer2/weights/summaries/stddev_1/tags"
  op: "Const"
  device: "/device:CPU:0"
  attr {
    key: "_output_shapes"
    value {
      list {
        shape {
        }
      }
    }
  }
  attr {
    key: "dtype"
    value {
      type: DT_STRING
    }
  }
  attr {
    key: "value"
    value {
      tensor {
        dtype: DT_STRING
        tensor_shape {
        }
        string_val: "layer2/weights/summaries/stddev_1"
      }
    }
  }
}
node {
  name: "import/layer2/weights/summaries/stddev_1"
  op: "ScalarSummary"
  input: "import/layer2/weights/summaries/stddev_1/tags"
  input: "import/layer2/weights/summaries/stddev/Sqrt"
  device: "/device:CPU:0"
  attr {
    key: "T"
    value {
      type: DT_FLOAT
    }
  }
  attr {
    key: "_output_shapes"
    value {
      list {
        shape {
        }
      }
    }
  }
}
node {
  name: "import/layer2/weights/summaries/Rank_1"
  op: "Const"
  device: "/device:CPU:0"
  attr {
    key: "_output_shapes"
    value {
      list {
        shape {
        }
      }
    }
  }
  attr {
    key: "dtype"
    value {
      type: DT_INT32
    }
  }
  attr {
    key: "value"
    value {
      tensor {
        dtype: DT_INT32
        tensor_shape {
        }
        int_val: 2
      }
    }
  }
}
node {
  name: "import/layer2/weights/summaries/range_1/start"
  op: "Const"
  device: "/device:CPU:0"
  attr {
    key: "_output_shapes"
    value {
      list {
        shape {
        }
      }
    }
  }
  attr {
    key: "dtype"
    value {
      type: DT_INT32
    }
  }
  attr {
    key: "value"
    value {
      tensor {
        dtype: DT_INT32
        tensor_shape {
        }
        int_val: 0
      }
    }
  }
}
node {
  name: "import/layer2/weights/summaries/range_1/delta"
  op: "Const"
  device: "/device:CPU:0"
  attr {
    key: "_output_shapes"
    value {
      list {
        shape {
        }
      }
    }
  }
  attr {
    key: "dtype"
    value {
      type: DT_INT32
    }
  }
  attr {
    key: "value"
    value {
      tensor {
        dtype: DT_INT32
        tensor_shape {
        }
        int_val: 1
      }
    }
  }
}
node {
  name: "import/layer2/weights/summaries/range_1"
  op: "Range"
  input: "import/layer2/weights/summaries/range_1/start"
  input: "import/layer2/weights/summaries/Rank_1"
  input: "import/layer2/weights/summaries/range_1/delta"
  device: "/device:CPU:0"
  attr {
    key: "Tidx"
    value {
      type: DT_INT32
    }
  }
  attr {
    key: "_output_shapes"
    value {
      list {
        shape {
          dim {
            size: 2
          }
        }
      }
    }
  }
}
node {
  name: "import/layer2/weights/summaries/Max"
  op: "Max"
  input: "import/layer2/weights/Variable/read"
  input: "import/layer2/weights/summaries/range_1"
  device: "/device:CPU:0"
  attr {
    key: "T"
    value {
      type: DT_FLOAT
    }
  }
  attr {
    key: "Tidx"
    value {
      type: DT_INT32
    }
  }
  attr {
    key: "_output_shapes"
    value {
      list {
        shape {
        }
      }
    }
  }
  attr {
    key: "keep_dims"
    value {
      b: false
    }
  }
}
node {
  name: "import/layer2/weights/summaries/max/tags"
  op: "Const"
  device: "/device:CPU:0"
  attr {
    key: "_output_shapes"
    value {
      list {
        shape {
        }
      }
    }
  }
  attr {
    key: "dtype"
    value {
      type: DT_STRING
    }
  }
  attr {
    key: "value"
    value {
      tensor {
        dtype: DT_STRING
        tensor_shape {
        }
        string_val: "layer2/weights/summaries/max"
      }
    }
  }
}
node {
  name: "import/layer2/weights/summaries/max"
  op: "ScalarSummary"
  input: "import/layer2/weights/summaries/max/tags"
  input: "import/layer2/weights/summaries/Max"
  device: "/device:CPU:0"
  attr {
    key: "T"
    value {
      type: DT_FLOAT
    }
  }
  attr {
    key: "_output_shapes"
    value {
      list {
        shape {
        }
      }
    }
  }
}
node {
  name: "import/layer2/weights/summaries/Rank_2"
  op: "Const"
  device: "/device:CPU:0"
  attr {
    key: "_output_shapes"
    value {
      list {
        shape {
        }
      }
    }
  }
  attr {
    key: "dtype"
    value {
      type: DT_INT32
    }
  }
  attr {
    key: "value"
    value {
      tensor {
        dtype: DT_INT32
        tensor_shape {
        }
        int_val: 2
      }
    }
  }
}
node {
  name: "import/layer2/weights/summaries/range_2/start"
  op: "Const"
  device: "/device:CPU:0"
  attr {
    key: "_output_shapes"
    value {
      list {
        shape {
        }
      }
    }
  }
  attr {
    key: "dtype"
    value {
      type: DT_INT32
    }
  }
  attr {
    key: "value"
    value {
      tensor {
        dtype: DT_INT32
        tensor_shape {
        }
        int_val: 0
      }
    }
  }
}
node {
  name: "import/layer2/weights/summaries/range_2/delta"
  op: "Const"
  device: "/device:CPU:0"
  attr {
    key: "_output_shapes"
    value {
      list {
        shape {
        }
      }
    }
  }
  attr {
    key: "dtype"
    value {
      type: DT_INT32
    }
  }
  attr {
    key: "value"
    value {
      tensor {
        dtype: DT_INT32
        tensor_shape {
        }
        int_val: 1
      }
    }
  }
}
node {
  name: "import/layer2/weights/summaries/range_2"
  op: "Range"
  input: "import/layer2/weights/summaries/range_2/start"
  input: "import/layer2/weights/summaries/Rank_2"
  input: "import/layer2/weights/summaries/range_2/delta"
  device: "/device:CPU:0"
  attr {
    key: "Tidx"
    value {
      type: DT_INT32
    }
  }
  attr {
    key: "_output_shapes"
    value {
      list {
        shape {
          dim {
            size: 2
          }
        }
      }
    }
  }
}
node {
  name: "import/layer2/weights/summaries/Min"
  op: "Min"
  input: "import/layer2/weights/Variable/read"
  input: "import/layer2/weights/summaries/range_2"
  device: "/device:CPU:0"
  attr {
    key: "T"
    value {
      type: DT_FLOAT
    }
  }
  attr {
    key: "Tidx"
    value {
      type: DT_INT32
    }
  }
  attr {
    key: "_output_shapes"
    value {
      list {
        shape {
        }
      }
    }
  }
  attr {
    key: "keep_dims"
    value {
      b: false
    }
  }
}
node {
  name: "import/layer2/weights/summaries/min/tags"
  op: "Const"
  device: "/device:CPU:0"
  attr {
    key: "_output_shapes"
    value {
      list {
        shape {
        }
      }
    }
  }
  attr {
    key: "dtype"
    value {
      type: DT_STRING
    }
  }
  attr {
    key: "value"
    value {
      tensor {
        dtype: DT_STRING
        tensor_shape {
        }
        string_val: "layer2/weights/summaries/min"
      }
    }
  }
}
node {
  name: "import/layer2/weights/summaries/min"
  op: "ScalarSummary"
  input: "import/layer2/weights/summaries/min/tags"
  input: "import/layer2/weights/summaries/Min"
  device: "/device:CPU:0"
  attr {
    key: "T"
    value {
      type: DT_FLOAT
    }
  }
  attr {
    key: "_output_shapes"
    value {
      list {
        shape {
        }
      }
    }
  }
}
node {
  name: "import/layer2/weights/summaries/histogram/tag"
  op: "Const"
  device: "/device:CPU:0"
  attr {
    key: "_output_shapes"
    value {
      list {
        shape {
        }
      }
    }
  }
  attr {
    key: "dtype"
    value {
      type: DT_STRING
    }
  }
  attr {
    key: "value"
    value {
      tensor {
        dtype: DT_STRING
        tensor_shape {
        }
        string_val: "layer2/weights/summaries/histogram"
      }
    }
  }
}
node {
  name: "import/layer2/weights/summaries/histogram"
  op: "HistogramSummary"
  input: "import/layer2/weights/summaries/histogram/tag"
  input: "import/layer2/weights/Variable/read"
  device: "/device:CPU:0"
  attr {
    key: "T"
    value {
      type: DT_FLOAT
    }
  }
  attr {
    key: "_output_shapes"
    value {
      list {
        shape {
        }
      }
    }
  }
}
node {
  name: "import/layer2/biases/Const"
  op: "Const"
  device: "/device:CPU:0"
  attr {
    key: "_output_shapes"
    value {
      list {
        shape {
          dim {
            size: 10
          }
        }
      }
    }
  }
  attr {
    key: "dtype"
    value {
      type: DT_FLOAT
    }
  }
  attr {
    key: "value"
    value {
      tensor {
        dtype: DT_FLOAT
        tensor_shape {
          dim {
            size: 10
          }
        }
        float_val: 0.10000000149011612
      }
    }
  }
}
node {
  name: "import/layer2/biases/Variable"
  op: "VariableV2"
  device: "/device:CPU:0"
  attr {
    key: "_output_shapes"
    value {
      list {
        shape {
          dim {
            size: 10
          }
        }
      }
    }
  }
  attr {
    key: "container"
    value {
      s: ""
    }
  }
  attr {
    key: "dtype"
    value {
      type: DT_FLOAT
    }
  }
  attr {
    key: "shape"
    value {
      shape {
        dim {
          size: 10
        }
      }
    }
  }
  attr {
    key: "shared_name"
    value {
      s: ""
    }
  }
}
node {
  name: "import/layer2/biases/Variable/Assign"
  op: "Assign"
  input: "import/layer2/biases/Variable"
  input: "import/layer2/biases/Const"
  device: "/device:CPU:0"
  attr {
    key: "T"
    value {
      type: DT_FLOAT
    }
  }
  attr {
    key: "_class"
    value {
      list {
        s: "loc:@import/layer2/biases/Variable"
      }
    }
  }
  attr {
    key: "_output_shapes"
    value {
      list {
        shape {
          dim {
            size: 10
          }
        }
      }
    }
  }
  attr {
    key: "use_locking"
    value {
      b: true
    }
  }
  attr {
    key: "validate_shape"
    value {
      b: true
    }
  }
}
node {
  name: "import/layer2/biases/Variable/read"
  op: "Identity"
  input: "import/layer2/biases/Variable"
  device: "/device:CPU:0"
  attr {
    key: "T"
    value {
      type: DT_FLOAT
    }
  }
  attr {
    key: "_class"
    value {
      list {
        s: "loc:@import/layer2/biases/Variable"
      }
    }
  }
  attr {
    key: "_output_shapes"
    value {
      list {
        shape {
          dim {
            size: 10
          }
        }
      }
    }
  }
}
node {
  name: "import/layer2/biases/summaries/Rank"
  op: "Const"
  device: "/device:CPU:0"
  attr {
    key: "_output_shapes"
    value {
      list {
        shape {
        }
      }
    }
  }
  attr {
    key: "dtype"
    value {
      type: DT_INT32
    }
  }
  attr {
    key: "value"
    value {
      tensor {
        dtype: DT_INT32
        tensor_shape {
        }
        int_val: 1
      }
    }
  }
}
node {
  name: "import/layer2/biases/summaries/range/start"
  op: "Const"
  device: "/device:CPU:0"
  attr {
    key: "_output_shapes"
    value {
      list {
        shape {
        }
      }
    }
  }
  attr {
    key: "dtype"
    value {
      type: DT_INT32
    }
  }
  attr {
    key: "value"
    value {
      tensor {
        dtype: DT_INT32
        tensor_shape {
        }
        int_val: 0
      }
    }
  }
}
node {
  name: "import/layer2/biases/summaries/range/delta"
  op: "Const"
  device: "/device:CPU:0"
  attr {
    key: "_output_shapes"
    value {
      list {
        shape {
        }
      }
    }
  }
  attr {
    key: "dtype"
    value {
      type: DT_INT32
    }
  }
  attr {
    key: "value"
    value {
      tensor {
        dtype: DT_INT32
        tensor_shape {
        }
        int_val: 1
      }
    }
  }
}
node {
  name: "import/layer2/biases/summaries/range"
  op: "Range"
  input: "import/layer2/biases/summaries/range/start"
  input: "import/layer2/biases/summaries/Rank"
  input: "import/layer2/biases/summaries/range/delta"
  device: "/device:CPU:0"
  attr {
    key: "Tidx"
    value {
      type: DT_INT32
    }
  }
  attr {
    key: "_output_shapes"
    value {
      list {
        shape {
          dim {
            size: 1
          }
        }
      }
    }
  }
}
node {
  name: "import/layer2/biases/summaries/Mean"
  op: "Mean"
  input: "import/layer2/biases/Variable/read"
  input: "import/layer2/biases/summaries/range"
  device: "/device:CPU:0"
  attr {
    key: "T"
    value {
      type: DT_FLOAT
    }
  }
  attr {
    key: "Tidx"
    value {
      type: DT_INT32
    }
  }
  attr {
    key: "_output_shapes"
    value {
      list {
        shape {
        }
      }
    }
  }
  attr {
    key: "keep_dims"
    value {
      b: false
    }
  }
}
node {
  name: "import/layer2/biases/summaries/mean/tags"
  op: "Const"
  device: "/device:CPU:0"
  attr {
    key: "_output_shapes"
    value {
      list {
        shape {
        }
      }
    }
  }
  attr {
    key: "dtype"
    value {
      type: DT_STRING
    }
  }
  attr {
    key: "value"
    value {
      tensor {
        dtype: DT_STRING
        tensor_shape {
        }
        string_val: "layer2/biases/summaries/mean"
      }
    }
  }
}
node {
  name: "import/layer2/biases/summaries/mean"
  op: "ScalarSummary"
  input: "import/layer2/biases/summaries/mean/tags"
  input: "import/layer2/biases/summaries/Mean"
  device: "/device:CPU:0"
  attr {
    key: "T"
    value {
      type: DT_FLOAT
    }
  }
  attr {
    key: "_output_shapes"
    value {
      list {
        shape {
        }
      }
    }
  }
}
node {
  name: "import/layer2/biases/summaries/stddev/sub"
  op: "Sub"
  input: "import/layer2/biases/Variable/read"
  input: "import/layer2/biases/summaries/Mean"
  device: "/device:CPU:0"
  attr {
    key: "T"
    value {
      type: DT_FLOAT
    }
  }
  attr {
    key: "_output_shapes"
    value {
      list {
        shape {
          dim {
            size: 10
          }
        }
      }
    }
  }
}
node {
  name: "import/layer2/biases/summaries/stddev/Square"
  op: "Square"
  input: "import/layer2/biases/summaries/stddev/sub"
  device: "/device:CPU:0"
  attr {
    key: "T"
    value {
      type: DT_FLOAT
    }
  }
  attr {
    key: "_output_shapes"
    value {
      list {
        shape {
          dim {
            size: 10
          }
        }
      }
    }
  }
}
node {
  name: "import/layer2/biases/summaries/stddev/Const"
  op: "Const"
  device: "/device:CPU:0"
  attr {
    key: "_output_shapes"
    value {
      list {
        shape {
          dim {
            size: 1
          }
        }
      }
    }
  }
  attr {
    key: "dtype"
    value {
      type: DT_INT32
    }
  }
  attr {
    key: "value"
    value {
      tensor {
        dtype: DT_INT32
        tensor_shape {
          dim {
            size: 1
          }
        }
        int_val: 0
      }
    }
  }
}
node {
  name: "import/layer2/biases/summaries/stddev/Mean"
  op: "Mean"
  input: "import/layer2/biases/summaries/stddev/Square"
  input: "import/layer2/biases/summaries/stddev/Const"
  device: "/device:CPU:0"
  attr {
    key: "T"
    value {
      type: DT_FLOAT
    }
  }
  attr {
    key: "Tidx"
    value {
      type: DT_INT32
    }
  }
  attr {
    key: "_output_shapes"
    value {
      list {
        shape {
        }
      }
    }
  }
  attr {
    key: "keep_dims"
    value {
      b: false
    }
  }
}
node {
  name: "import/layer2/biases/summaries/stddev/Sqrt"
  op: "Sqrt"
  input: "import/layer2/biases/summaries/stddev/Mean"
  device: "/device:CPU:0"
  attr {
    key: "T"
    value {
      type: DT_FLOAT
    }
  }
  attr {
    key: "_output_shapes"
    value {
      list {
        shape {
        }
      }
    }
  }
}
node {
  name: "import/layer2/biases/summaries/stddev_1/tags"
  op: "Const"
  device: "/device:CPU:0"
  attr {
    key: "_output_shapes"
    value {
      list {
        shape {
        }
      }
    }
  }
  attr {
    key: "dtype"
    value {
      type: DT_STRING
    }
  }
  attr {
    key: "value"
    value {
      tensor {
        dtype: DT_STRING
        tensor_shape {
        }
        string_val: "layer2/biases/summaries/stddev_1"
      }
    }
  }
}
node {
  name: "import/layer2/biases/summaries/stddev_1"
  op: "ScalarSummary"
  input: "import/layer2/biases/summaries/stddev_1/tags"
  input: "import/layer2/biases/summaries/stddev/Sqrt"
  device: "/device:CPU:0"
  attr {
    key: "T"
    value {
      type: DT_FLOAT
    }
  }
  attr {
    key: "_output_shapes"
    value {
      list {
        shape {
        }
      }
    }
  }
}
node {
  name: "import/layer2/biases/summaries/Rank_1"
  op: "Const"
  device: "/device:CPU:0"
  attr {
    key: "_output_shapes"
    value {
      list {
        shape {
        }
      }
    }
  }
  attr {
    key: "dtype"
    value {
      type: DT_INT32
    }
  }
  attr {
    key: "value"
    value {
      tensor {
        dtype: DT_INT32
        tensor_shape {
        }
        int_val: 1
      }
    }
  }
}
node {
  name: "import/layer2/biases/summaries/range_1/start"
  op: "Const"
  device: "/device:CPU:0"
  attr {
    key: "_output_shapes"
    value {
      list {
        shape {
        }
      }
    }
  }
  attr {
    key: "dtype"
    value {
      type: DT_INT32
    }
  }
  attr {
    key: "value"
    value {
      tensor {
        dtype: DT_INT32
        tensor_shape {
        }
        int_val: 0
      }
    }
  }
}
node {
  name: "import/layer2/biases/summaries/range_1/delta"
  op: "Const"
  device: "/device:CPU:0"
  attr {
    key: "_output_shapes"
    value {
      list {
        shape {
        }
      }
    }
  }
  attr {
    key: "dtype"
    value {
      type: DT_INT32
    }
  }
  attr {
    key: "value"
    value {
      tensor {
        dtype: DT_INT32
        tensor_shape {
        }
        int_val: 1
      }
    }
  }
}
node {
  name: "import/layer2/biases/summaries/range_1"
  op: "Range"
  input: "import/layer2/biases/summaries/range_1/start"
  input: "import/layer2/biases/summaries/Rank_1"
  input: "import/layer2/biases/summaries/range_1/delta"
  device: "/device:CPU:0"
  attr {
    key: "Tidx"
    value {
      type: DT_INT32
    }
  }
  attr {
    key: "_output_shapes"
    value {
      list {
        shape {
          dim {
            size: 1
          }
        }
      }
    }
  }
}
node {
  name: "import/layer2/biases/summaries/Max"
  op: "Max"
  input: "import/layer2/biases/Variable/read"
  input: "import/layer2/biases/summaries/range_1"
  device: "/device:CPU:0"
  attr {
    key: "T"
    value {
      type: DT_FLOAT
    }
  }
  attr {
    key: "Tidx"
    value {
      type: DT_INT32
    }
  }
  attr {
    key: "_output_shapes"
    value {
      list {
        shape {
        }
      }
    }
  }
  attr {
    key: "keep_dims"
    value {
      b: false
    }
  }
}
node {
  name: "import/layer2/biases/summaries/max/tags"
  op: "Const"
  device: "/device:CPU:0"
  attr {
    key: "_output_shapes"
    value {
      list {
        shape {
        }
      }
    }
  }
  attr {
    key: "dtype"
    value {
      type: DT_STRING
    }
  }
  attr {
    key: "value"
    value {
      tensor {
        dtype: DT_STRING
        tensor_shape {
        }
        string_val: "layer2/biases/summaries/max"
      }
    }
  }
}
node {
  name: "import/layer2/biases/summaries/max"
  op: "ScalarSummary"
  input: "import/layer2/biases/summaries/max/tags"
  input: "import/layer2/biases/summaries/Max"
  device: "/device:CPU:0"
  attr {
    key: "T"
    value {
      type: DT_FLOAT
    }
  }
  attr {
    key: "_output_shapes"
    value {
      list {
        shape {
        }
      }
    }
  }
}
node {
  name: "import/layer2/biases/summaries/Rank_2"
  op: "Const"
  device: "/device:CPU:0"
  attr {
    key: "_output_shapes"
    value {
      list {
        shape {
        }
      }
    }
  }
  attr {
    key: "dtype"
    value {
      type: DT_INT32
    }
  }
  attr {
    key: "value"
    value {
      tensor {
        dtype: DT_INT32
        tensor_shape {
        }
        int_val: 1
      }
    }
  }
}
node {
  name: "import/layer2/biases/summaries/range_2/start"
  op: "Const"
  device: "/device:CPU:0"
  attr {
    key: "_output_shapes"
    value {
      list {
        shape {
        }
      }
    }
  }
  attr {
    key: "dtype"
    value {
      type: DT_INT32
    }
  }
  attr {
    key: "value"
    value {
      tensor {
        dtype: DT_INT32
        tensor_shape {
        }
        int_val: 0
      }
    }
  }
}
node {
  name: "import/layer2/biases/summaries/range_2/delta"
  op: "Const"
  device: "/device:CPU:0"
  attr {
    key: "_output_shapes"
    value {
      list {
        shape {
        }
      }
    }
  }
  attr {
    key: "dtype"
    value {
      type: DT_INT32
    }
  }
  attr {
    key: "value"
    value {
      tensor {
        dtype: DT_INT32
        tensor_shape {
        }
        int_val: 1
      }
    }
  }
}
node {
  name: "import/layer2/biases/summaries/range_2"
  op: "Range"
  input: "import/layer2/biases/summaries/range_2/start"
  input: "import/layer2/biases/summaries/Rank_2"
  input: "import/layer2/biases/summaries/range_2/delta"
  device: "/device:CPU:0"
  attr {
    key: "Tidx"
    value {
      type: DT_INT32
    }
  }
  attr {
    key: "_output_shapes"
    value {
      list {
        shape {
          dim {
            size: 1
          }
        }
      }
    }
  }
}
node {
  name: "import/layer2/biases/summaries/Min"
  op: "Min"
  input: "import/layer2/biases/Variable/read"
  input: "import/layer2/biases/summaries/range_2"
  device: "/device:CPU:0"
  attr {
    key: "T"
    value {
      type: DT_FLOAT
    }
  }
  attr {
    key: "Tidx"
    value {
      type: DT_INT32
    }
  }
  attr {
    key: "_output_shapes"
    value {
      list {
        shape {
        }
      }
    }
  }
  attr {
    key: "keep_dims"
    value {
      b: false
    }
  }
}
node {
  name: "import/layer2/biases/summaries/min/tags"
  op: "Const"
  device: "/device:CPU:0"
  attr {
    key: "_output_shapes"
    value {
      list {
        shape {
        }
      }
    }
  }
  attr {
    key: "dtype"
    value {
      type: DT_STRING
    }
  }
  attr {
    key: "value"
    value {
      tensor {
        dtype: DT_STRING
        tensor_shape {
        }
        string_val: "layer2/biases/summaries/min"
      }
    }
  }
}
node {
  name: "import/layer2/biases/summaries/min"
  op: "ScalarSummary"
  input: "import/layer2/biases/summaries/min/tags"
  input: "import/layer2/biases/summaries/Min"
  device: "/device:CPU:0"
  attr {
    key: "T"
    value {
      type: DT_FLOAT
    }
  }
  attr {
    key: "_output_shapes"
    value {
      list {
        shape {
        }
      }
    }
  }
}
node {
  name: "import/layer2/biases/summaries/histogram/tag"
  op: "Const"
  device: "/device:CPU:0"
  attr {
    key: "_output_shapes"
    value {
      list {
        shape {
        }
      }
    }
  }
  attr {
    key: "dtype"
    value {
      type: DT_STRING
    }
  }
  attr {
    key: "value"
    value {
      tensor {
        dtype: DT_STRING
        tensor_shape {
        }
        string_val: "layer2/biases/summaries/histogram"
      }
    }
  }
}
node {
  name: "import/layer2/biases/summaries/histogram"
  op: "HistogramSummary"
  input: "import/layer2/biases/summaries/histogram/tag"
  input: "import/layer2/biases/Variable/read"
  device: "/device:CPU:0"
  attr {
    key: "T"
    value {
      type: DT_FLOAT
    }
  }
  attr {
    key: "_output_shapes"
    value {
      list {
        shape {
        }
      }
    }
  }
}
node {
  name: "import/layer2/Wx_plus_b/MatMul"
  op: "MatMul"
  input: "import/dropout/dropout/mul"
  input: "import/layer2/weights/Variable/read"
  device: "/device:CPU:0"
  attr {
    key: "T"
    value {
      type: DT_FLOAT
    }
  }
  attr {
    key: "_output_shapes"
    value {
      list {
        shape {
          dim {
            size: -1
          }
          dim {
            size: 10
          }
        }
      }
    }
  }
  attr {
    key: "transpose_a"
    value {
      b: false
    }
  }
  attr {
    key: "transpose_b"
    value {
      b: false
    }
  }
}
node {
  name: "import/layer2/Wx_plus_b/add"
  op: "Add"
  input: "import/layer2/Wx_plus_b/MatMul"
  input: "import/layer2/biases/Variable/read"
  device: "/device:CPU:0"
  attr {
    key: "T"
    value {
      type: DT_FLOAT
    }
  }
  attr {
    key: "_output_shapes"
    value {
      list {
        shape {
          dim {
            size: -1
          }
          dim {
            size: 10
          }
        }
      }
    }
  }
}
node {
  name: "import/layer2/Wx_plus_b/pre_activations/tag"
  op: "Const"
  device: "/device:CPU:0"
  attr {
    key: "_output_shapes"
    value {
      list {
        shape {
        }
      }
    }
  }
  attr {
    key: "dtype"
    value {
      type: DT_STRING
    }
  }
  attr {
    key: "value"
    value {
      tensor {
        dtype: DT_STRING
        tensor_shape {
        }
        string_val: "layer2/Wx_plus_b/pre_activations"
      }
    }
  }
}
node {
  name: "import/layer2/Wx_plus_b/pre_activations"
  op: "HistogramSummary"
  input: "import/layer2/Wx_plus_b/pre_activations/tag"
  input: "import/layer2/Wx_plus_b/add"
  device: "/device:CPU:0"
  attr {
    key: "T"
    value {
      type: DT_FLOAT
    }
  }
  attr {
    key: "_output_shapes"
    value {
      list {
        shape {
        }
      }
    }
  }
}
node {
  name: "import/layer2/activation"
  op: "Identity"
  input: "import/layer2/Wx_plus_b/add"
  device: "/device:CPU:0"
  attr {
    key: "T"
    value {
      type: DT_FLOAT
    }
  }
  attr {
    key: "_output_shapes"
    value {
      list {
        shape {
          dim {
            size: -1
          }
          dim {
            size: 10
          }
        }
      }
    }
  }
}
node {
  name: "import/layer2/activations/tag"
  op: "Const"
  device: "/device:CPU:0"
  attr {
    key: "_output_shapes"
    value {
      list {
        shape {
        }
      }
    }
  }
  attr {
    key: "dtype"
    value {
      type: DT_STRING
    }
  }
  attr {
    key: "value"
    value {
      tensor {
        dtype: DT_STRING
        tensor_shape {
        }
        string_val: "layer2/activations"
      }
    }
  }
}
node {
  name: "import/layer2/activations"
  op: "HistogramSummary"
  input: "import/layer2/activations/tag"
  input: "import/layer2/activation"
  device: "/device:CPU:0"
  attr {
    key: "T"
    value {
      type: DT_FLOAT
    }
  }
  attr {
    key: "_output_shapes"
    value {
      list {
        shape {
        }
      }
    }
  }
}
node {
  name: "import/cross_entropy/total/sparse_softmax_cross_entropy_loss/Const"
  op: "Const"
  device: "/device:CPU:0"
  attr {
    key: "_output_shapes"
    value {
      list {
        shape {
        }
      }
    }
  }
  attr {
    key: "dtype"
    value {
      type: DT_FLOAT
    }
  }
  attr {
    key: "value"
    value {
      tensor {
        dtype: DT_FLOAT
        tensor_shape {
        }
        float_val: 1.0
      }
    }
  }
}
node {
  name: "import/cross_entropy/total/sparse_softmax_cross_entropy_loss/xentropy/Shape"
  op: "Shape"
  input: "import/input/y-input"
  device: "/device:CPU:0"
  attr {
    key: "T"
    value {
      type: DT_INT64
    }
  }
  attr {
    key: "_output_shapes"
    value {
      list {
        shape {
          dim {
            size: 1
          }
        }
      }
    }
  }
  attr {
    key: "out_type"
    value {
      type: DT_INT32
    }
  }
}
node {
  name: "import/cross_entropy/total/sparse_softmax_cross_entropy_loss/xentropy/xentropy"
  op: "SparseSoftmaxCrossEntropyWithLogits"
  input: "import/layer2/activation"
  input: "import/input/y-input"
  device: "/device:CPU:0"
  attr {
    key: "T"
    value {
      type: DT_FLOAT
    }
  }
  attr {
    key: "Tlabels"
    value {
      type: DT_INT64
    }
  }
  attr {
    key: "_output_shapes"
    value {
      list {
        shape {
          dim {
            size: -1
          }
        }
        shape {
          dim {
            size: -1
          }
          dim {
            size: 10
          }
        }
      }
    }
  }
}
node {
  name: "import/cross_entropy/total/sparse_softmax_cross_entropy_loss/assert_broadcastable/weights/shape"
  op: "Const"
  device: "/device:CPU:0"
  attr {
    key: "_output_shapes"
    value {
      list {
        shape {
          dim {
          }
        }
      }
    }
  }
  attr {
    key: "dtype"
    value {
      type: DT_INT32
    }
  }
  attr {
    key: "value"
    value {
      tensor {
        dtype: DT_INT32
        tensor_shape {
          dim {
          }
        }
      }
    }
  }
}
node {
  name: "import/cross_entropy/total/sparse_softmax_cross_entropy_loss/assert_broadcastable/weights/rank"
  op: "Const"
  device: "/device:CPU:0"
  attr {
    key: "_output_shapes"
    value {
      list {
        shape {
        }
      }
    }
  }
  attr {
    key: "dtype"
    value {
      type: DT_INT32
    }
  }
  attr {
    key: "value"
    value {
      tensor {
        dtype: DT_INT32
        tensor_shape {
        }
        int_val: 0
      }
    }
  }
}
node {
  name: "import/cross_entropy/total/sparse_softmax_cross_entropy_loss/assert_broadcastable/values/shape"
  op: "Shape"
  input: "import/cross_entropy/total/sparse_softmax_cross_entropy_loss/xentropy/xentropy"
  device: "/device:CPU:0"
  attr {
    key: "T"
    value {
      type: DT_FLOAT
    }
  }
  attr {
    key: "_output_shapes"
    value {
      list {
        shape {
          dim {
            size: 1
          }
        }
      }
    }
  }
  attr {
    key: "out_type"
    value {
      type: DT_INT32
    }
  }
}
node {
  name: "import/cross_entropy/total/sparse_softmax_cross_entropy_loss/assert_broadcastable/values/rank"
  op: "Const"
  device: "/device:CPU:0"
  attr {
    key: "_output_shapes"
    value {
      list {
        shape {
        }
      }
    }
  }
  attr {
    key: "dtype"
    value {
      type: DT_INT32
    }
  }
  attr {
    key: "value"
    value {
      tensor {
        dtype: DT_INT32
        tensor_shape {
        }
        int_val: 1
      }
    }
  }
}
node {
  name: "import/cross_entropy/total/sparse_softmax_cross_entropy_loss/assert_broadcastable/static_scalar_check_success"
  op: "NoOp"
  device: "/device:CPU:0"
}
node {
  name: "import/cross_entropy/total/sparse_softmax_cross_entropy_loss/Mul"
  op: "Mul"
  input: "import/cross_entropy/total/sparse_softmax_cross_entropy_loss/xentropy/xentropy"
  input: "import/cross_entropy/total/sparse_softmax_cross_entropy_loss/Const"
  input: "^import/cross_entropy/total/sparse_softmax_cross_entropy_loss/assert_broadcastable/static_scalar_check_success"
  device: "/device:CPU:0"
  attr {
    key: "T"
    value {
      type: DT_FLOAT
    }
  }
  attr {
    key: "_output_shapes"
    value {
      list {
        shape {
          dim {
            size: -1
          }
        }
      }
    }
  }
}
node {
  name: "import/cross_entropy/total/sparse_softmax_cross_entropy_loss/Const_1"
  op: "Const"
  input: "^import/cross_entropy/total/sparse_softmax_cross_entropy_loss/assert_broadcastable/static_scalar_check_success"
  device: "/device:CPU:0"
  attr {
    key: "_output_shapes"
    value {
      list {
        shape {
          dim {
            size: 1
          }
        }
      }
    }
  }
  attr {
    key: "dtype"
    value {
      type: DT_INT32
    }
  }
  attr {
    key: "value"
    value {
      tensor {
        dtype: DT_INT32
        tensor_shape {
          dim {
            size: 1
          }
        }
        int_val: 0
      }
    }
  }
}
node {
  name: "import/cross_entropy/total/sparse_softmax_cross_entropy_loss/Sum"
  op: "Sum"
  input: "import/cross_entropy/total/sparse_softmax_cross_entropy_loss/Mul"
  input: "import/cross_entropy/total/sparse_softmax_cross_entropy_loss/Const_1"
  device: "/device:CPU:0"
  attr {
    key: "T"
    value {
      type: DT_FLOAT
    }
  }
  attr {
    key: "Tidx"
    value {
      type: DT_INT32
    }
  }
  attr {
    key: "_output_shapes"
    value {
      list {
        shape {
        }
      }
    }
  }
  attr {
    key: "keep_dims"
    value {
      b: false
    }
  }
}
node {
  name: "import/cross_entropy/total/sparse_softmax_cross_entropy_loss/num_present/Equal/y"
  op: "Const"
  input: "^import/cross_entropy/total/sparse_softmax_cross_entropy_loss/assert_broadcastable/static_scalar_check_success"
  device: "/device:CPU:0"
  attr {
    key: "_output_shapes"
    value {
      list {
        shape {
        }
      }
    }
  }
  attr {
    key: "dtype"
    value {
      type: DT_FLOAT
    }
  }
  attr {
    key: "value"
    value {
      tensor {
        dtype: DT_FLOAT
        tensor_shape {
        }
        float_val: 0.0
      }
    }
  }
}
node {
  name: "import/cross_entropy/total/sparse_softmax_cross_entropy_loss/num_present/Equal"
  op: "Equal"
  input: "import/cross_entropy/total/sparse_softmax_cross_entropy_loss/Const"
  input: "import/cross_entropy/total/sparse_softmax_cross_entropy_loss/num_present/Equal/y"
  device: "/device:CPU:0"
  attr {
    key: "T"
    value {
      type: DT_FLOAT
    }
  }
  attr {
    key: "_output_shapes"
    value {
      list {
        shape {
        }
      }
    }
  }
}
node {
  name: "import/cross_entropy/total/sparse_softmax_cross_entropy_loss/num_present/zeros_like"
  op: "Const"
  input: "^import/cross_entropy/total/sparse_softmax_cross_entropy_loss/assert_broadcastable/static_scalar_check_success"
  device: "/device:CPU:0"
  attr {
    key: "_output_shapes"
    value {
      list {
        shape {
        }
      }
    }
  }
  attr {
    key: "dtype"
    value {
      type: DT_FLOAT
    }
  }
  attr {
    key: "value"
    value {
      tensor {
        dtype: DT_FLOAT
        tensor_shape {
        }
        float_val: 0.0
      }
    }
  }
}
node {
  name: "import/cross_entropy/total/sparse_softmax_cross_entropy_loss/num_present/ones_like/Shape"
  op: "Const"
  input: "^import/cross_entropy/total/sparse_softmax_cross_entropy_loss/assert_broadcastable/static_scalar_check_success"
  device: "/device:CPU:0"
  attr {
    key: "_output_shapes"
    value {
      list {
        shape {
          dim {
          }
        }
      }
    }
  }
  attr {
    key: "dtype"
    value {
      type: DT_INT32
    }
  }
  attr {
    key: "value"
    value {
      tensor {
        dtype: DT_INT32
        tensor_shape {
          dim {
          }
        }
      }
    }
  }
}
node {
  name: "import/cross_entropy/total/sparse_softmax_cross_entropy_loss/num_present/ones_like/Const"
  op: "Const"
  input: "^import/cross_entropy/total/sparse_softmax_cross_entropy_loss/assert_broadcastable/static_scalar_check_success"
  device: "/device:CPU:0"
  attr {
    key: "_output_shapes"
    value {
      list {
        shape {
        }
      }
    }
  }
  attr {
    key: "dtype"
    value {
      type: DT_FLOAT
    }
  }
  attr {
    key: "value"
    value {
      tensor {
        dtype: DT_FLOAT
        tensor_shape {
        }
        float_val: 1.0
      }
    }
  }
}
node {
  name: "import/cross_entropy/total/sparse_softmax_cross_entropy_loss/num_present/ones_like"
  op: "Fill"
  input: "import/cross_entropy/total/sparse_softmax_cross_entropy_loss/num_present/ones_like/Shape"
  input: "import/cross_entropy/total/sparse_softmax_cross_entropy_loss/num_present/ones_like/Const"
  device: "/device:CPU:0"
  attr {
    key: "T"
    value {
      type: DT_FLOAT
    }
  }
  attr {
    key: "_output_shapes"
    value {
      list {
        shape {
        }
      }
    }
  }
}
node {
  name: "import/cross_entropy/total/sparse_softmax_cross_entropy_loss/num_present/Select"
  op: "Select"
  input: "import/cross_entropy/total/sparse_softmax_cross_entropy_loss/num_present/Equal"
  input: "import/cross_entropy/total/sparse_softmax_cross_entropy_loss/num_present/zeros_like"
  input: "import/cross_entropy/total/sparse_softmax_cross_entropy_loss/num_present/ones_like"
  device: "/device:CPU:0"
  attr {
    key: "T"
    value {
      type: DT_FLOAT
    }
  }
  attr {
    key: "_output_shapes"
    value {
      list {
        shape {
        }
      }
    }
  }
}
node {
  name: "import/cross_entropy/total/sparse_softmax_cross_entropy_loss/num_present/broadcast_weights/assert_broadcastable/weights/shape"
  op: "Const"
  input: "^import/cross_entropy/total/sparse_softmax_cross_entropy_loss/assert_broadcastable/static_scalar_check_success"
  device: "/device:CPU:0"
  attr {
    key: "_output_shapes"
    value {
      list {
        shape {
          dim {
          }
        }
      }
    }
  }
  attr {
    key: "dtype"
    value {
      type: DT_INT32
    }
  }
  attr {
    key: "value"
    value {
      tensor {
        dtype: DT_INT32
        tensor_shape {
          dim {
          }
        }
      }
    }
  }
}
node {
  name: "import/cross_entropy/total/sparse_softmax_cross_entropy_loss/num_present/broadcast_weights/assert_broadcastable/weights/rank"
  op: "Const"
  input: "^import/cross_entropy/total/sparse_softmax_cross_entropy_loss/assert_broadcastable/static_scalar_check_success"
  device: "/device:CPU:0"
  attr {
    key: "_output_shapes"
    value {
      list {
        shape {
        }
      }
    }
  }
  attr {
    key: "dtype"
    value {
      type: DT_INT32
    }
  }
  attr {
    key: "value"
    value {
      tensor {
        dtype: DT_INT32
        tensor_shape {
        }
        int_val: 0
      }
    }
  }
}
node {
  name: "import/cross_entropy/total/sparse_softmax_cross_entropy_loss/num_present/broadcast_weights/assert_broadcastable/values/shape"
  op: "Shape"
  input: "import/cross_entropy/total/sparse_softmax_cross_entropy_loss/xentropy/xentropy"
  input: "^import/cross_entropy/total/sparse_softmax_cross_entropy_loss/assert_broadcastable/static_scalar_check_success"
  device: "/device:CPU:0"
  attr {
    key: "T"
    value {
      type: DT_FLOAT
    }
  }
  attr {
    key: "_output_shapes"
    value {
      list {
        shape {
          dim {
            size: 1
          }
        }
      }
    }
  }
  attr {
    key: "out_type"
    value {
      type: DT_INT32
    }
  }
}
node {
  name: "import/cross_entropy/total/sparse_softmax_cross_entropy_loss/num_present/broadcast_weights/assert_broadcastable/values/rank"
  op: "Const"
  input: "^import/cross_entropy/total/sparse_softmax_cross_entropy_loss/assert_broadcastable/static_scalar_check_success"
  device: "/device:CPU:0"
  attr {
    key: "_output_shapes"
    value {
      list {
        shape {
        }
      }
    }
  }
  attr {
    key: "dtype"
    value {
      type: DT_INT32
    }
  }
  attr {
    key: "value"
    value {
      tensor {
        dtype: DT_INT32
        tensor_shape {
        }
        int_val: 1
      }
    }
  }
}
node {
  name: "import/cross_entropy/total/sparse_softmax_cross_entropy_loss/num_present/broadcast_weights/assert_broadcastable/static_scalar_check_success"
  op: "NoOp"
  input: "^import/cross_entropy/total/sparse_softmax_cross_entropy_loss/assert_broadcastable/static_scalar_check_success"
  device: "/device:CPU:0"
}
node {
  name: "import/cross_entropy/total/sparse_softmax_cross_entropy_loss/num_present/broadcast_weights/ones_like/Shape"
  op: "Shape"
  input: "import/cross_entropy/total/sparse_softmax_cross_entropy_loss/xentropy/xentropy"
  input: "^import/cross_entropy/total/sparse_softmax_cross_entropy_loss/assert_broadcastable/static_scalar_check_success"
  input: "^import/cross_entropy/total/sparse_softmax_cross_entropy_loss/num_present/broadcast_weights/assert_broadcastable/static_scalar_check_success"
  device: "/device:CPU:0"
  attr {
    key: "T"
    value {
      type: DT_FLOAT
    }
  }
  attr {
    key: "_output_shapes"
    value {
      list {
        shape {
          dim {
            size: 1
          }
        }
      }
    }
  }
  attr {
    key: "out_type"
    value {
      type: DT_INT32
    }
  }
}
node {
  name: "import/cross_entropy/total/sparse_softmax_cross_entropy_loss/num_present/broadcast_weights/ones_like/Const"
  op: "Const"
  input: "^import/cross_entropy/total/sparse_softmax_cross_entropy_loss/assert_broadcastable/static_scalar_check_success"
  input: "^import/cross_entropy/total/sparse_softmax_cross_entropy_loss/num_present/broadcast_weights/assert_broadcastable/static_scalar_check_success"
  device: "/device:CPU:0"
  attr {
    key: "_output_shapes"
    value {
      list {
        shape {
        }
      }
    }
  }
  attr {
    key: "dtype"
    value {
      type: DT_FLOAT
    }
  }
  attr {
    key: "value"
    value {
      tensor {
        dtype: DT_FLOAT
        tensor_shape {
        }
        float_val: 1.0
      }
    }
  }
}
node {
  name: "import/cross_entropy/total/sparse_softmax_cross_entropy_loss/num_present/broadcast_weights/ones_like"
  op: "Fill"
  input: "import/cross_entropy/total/sparse_softmax_cross_entropy_loss/num_present/broadcast_weights/ones_like/Shape"
  input: "import/cross_entropy/total/sparse_softmax_cross_entropy_loss/num_present/broadcast_weights/ones_like/Const"
  device: "/device:CPU:0"
  attr {
    key: "T"
    value {
      type: DT_FLOAT
    }
  }
  attr {
    key: "_output_shapes"
    value {
      list {
        shape {
          dim {
            size: -1
          }
        }
      }
    }
  }
}
node {
  name: "import/cross_entropy/total/sparse_softmax_cross_entropy_loss/num_present/broadcast_weights"
  op: "Mul"
  input: "import/cross_entropy/total/sparse_softmax_cross_entropy_loss/num_present/Select"
  input: "import/cross_entropy/total/sparse_softmax_cross_entropy_loss/num_present/broadcast_weights/ones_like"
  device: "/device:CPU:0"
  attr {
    key: "T"
    value {
      type: DT_FLOAT
    }
  }
  attr {
    key: "_output_shapes"
    value {
      list {
        shape {
          dim {
            size: -1
          }
        }
      }
    }
  }
}
node {
  name: "import/cross_entropy/total/sparse_softmax_cross_entropy_loss/num_present/Const"
  op: "Const"
  input: "^import/cross_entropy/total/sparse_softmax_cross_entropy_loss/assert_broadcastable/static_scalar_check_success"
  device: "/device:CPU:0"
  attr {
    key: "_output_shapes"
    value {
      list {
        shape {
          dim {
            size: 1
          }
        }
      }
    }
  }
  attr {
    key: "dtype"
    value {
      type: DT_INT32
    }
  }
  attr {
    key: "value"
    value {
      tensor {
        dtype: DT_INT32
        tensor_shape {
          dim {
            size: 1
          }
        }
        int_val: 0
      }
    }
  }
}
node {
  name: "import/cross_entropy/total/sparse_softmax_cross_entropy_loss/num_present"
  op: "Sum"
  input: "import/cross_entropy/total/sparse_softmax_cross_entropy_loss/num_present/broadcast_weights"
  input: "import/cross_entropy/total/sparse_softmax_cross_entropy_loss/num_present/Const"
  device: "/device:CPU:0"
  attr {
    key: "T"
    value {
      type: DT_FLOAT
    }
  }
  attr {
    key: "Tidx"
    value {
      type: DT_INT32
    }
  }
  attr {
    key: "_output_shapes"
    value {
      list {
        shape {
        }
      }
    }
  }
  attr {
    key: "keep_dims"
    value {
      b: false
    }
  }
}
node {
  name: "import/cross_entropy/total/sparse_softmax_cross_entropy_loss/Const_2"
  op: "Const"
  input: "^import/cross_entropy/total/sparse_softmax_cross_entropy_loss/assert_broadcastable/static_scalar_check_success"
  device: "/device:CPU:0"
  attr {
    key: "_output_shapes"
    value {
      list {
        shape {
          dim {
          }
        }
      }
    }
  }
  attr {
    key: "dtype"
    value {
      type: DT_INT32
    }
  }
  attr {
    key: "value"
    value {
      tensor {
        dtype: DT_INT32
        tensor_shape {
          dim {
          }
        }
      }
    }
  }
}
node {
  name: "import/cross_entropy/total/sparse_softmax_cross_entropy_loss/Sum_1"
  op: "Sum"
  input: "import/cross_entropy/total/sparse_softmax_cross_entropy_loss/Sum"
  input: "import/cross_entropy/total/sparse_softmax_cross_entropy_loss/Const_2"
  device: "/device:CPU:0"
  attr {
    key: "T"
    value {
      type: DT_FLOAT
    }
  }
  attr {
    key: "Tidx"
    value {
      type: DT_INT32
    }
  }
  attr {
    key: "_output_shapes"
    value {
      list {
        shape {
        }
      }
    }
  }
  attr {
    key: "keep_dims"
    value {
      b: false
    }
  }
}
node {
  name: "import/cross_entropy/total/sparse_softmax_cross_entropy_loss/Greater/y"
  op: "Const"
  input: "^import/cross_entropy/total/sparse_softmax_cross_entropy_loss/assert_broadcastable/static_scalar_check_success"
  device: "/device:CPU:0"
  attr {
    key: "_output_shapes"
    value {
      list {
        shape {
        }
      }
    }
  }
  attr {
    key: "dtype"
    value {
      type: DT_FLOAT
    }
  }
  attr {
    key: "value"
    value {
      tensor {
        dtype: DT_FLOAT
        tensor_shape {
        }
        float_val: 0.0
      }
    }
  }
}
node {
  name: "import/cross_entropy/total/sparse_softmax_cross_entropy_loss/Greater"
  op: "Greater"
  input: "import/cross_entropy/total/sparse_softmax_cross_entropy_loss/num_present"
  input: "import/cross_entropy/total/sparse_softmax_cross_entropy_loss/Greater/y"
  device: "/device:CPU:0"
  attr {
    key: "T"
    value {
      type: DT_FLOAT
    }
  }
  attr {
    key: "_output_shapes"
    value {
      list {
        shape {
        }
      }
    }
  }
}
node {
  name: "import/cross_entropy/total/sparse_softmax_cross_entropy_loss/Equal/y"
  op: "Const"
  input: "^import/cross_entropy/total/sparse_softmax_cross_entropy_loss/assert_broadcastable/static_scalar_check_success"
  device: "/device:CPU:0"
  attr {
    key: "_output_shapes"
    value {
      list {
        shape {
        }
      }
    }
  }
  attr {
    key: "dtype"
    value {
      type: DT_FLOAT
    }
  }
  attr {
    key: "value"
    value {
      tensor {
        dtype: DT_FLOAT
        tensor_shape {
        }
        float_val: 0.0
      }
    }
  }
}
node {
  name: "import/cross_entropy/total/sparse_softmax_cross_entropy_loss/Equal"
  op: "Equal"
  input: "import/cross_entropy/total/sparse_softmax_cross_entropy_loss/num_present"
  input: "import/cross_entropy/total/sparse_softmax_cross_entropy_loss/Equal/y"
  device: "/device:CPU:0"
  attr {
    key: "T"
    value {
      type: DT_FLOAT
    }
  }
  attr {
    key: "_output_shapes"
    value {
      list {
        shape {
        }
      }
    }
  }
}
node {
  name: "import/cross_entropy/total/sparse_softmax_cross_entropy_loss/ones_like/Shape"
  op: "Const"
  input: "^import/cross_entropy/total/sparse_softmax_cross_entropy_loss/assert_broadcastable/static_scalar_check_success"
  device: "/device:CPU:0"
  attr {
    key: "_output_shapes"
    value {
      list {
        shape {
          dim {
          }
        }
      }
    }
  }
  attr {
    key: "dtype"
    value {
      type: DT_INT32
    }
  }
  attr {
    key: "value"
    value {
      tensor {
        dtype: DT_INT32
        tensor_shape {
          dim {
          }
        }
      }
    }
  }
}
node {
  name: "import/cross_entropy/total/sparse_softmax_cross_entropy_loss/ones_like/Const"
  op: "Const"
  input: "^import/cross_entropy/total/sparse_softmax_cross_entropy_loss/assert_broadcastable/static_scalar_check_success"
  device: "/device:CPU:0"
  attr {
    key: "_output_shapes"
    value {
      list {
        shape {
        }
      }
    }
  }
  attr {
    key: "dtype"
    value {
      type: DT_FLOAT
    }
  }
  attr {
    key: "value"
    value {
      tensor {
        dtype: DT_FLOAT
        tensor_shape {
        }
        float_val: 1.0
      }
    }
  }
}
node {
  name: "import/cross_entropy/total/sparse_softmax_cross_entropy_loss/ones_like"
  op: "Fill"
  input: "import/cross_entropy/total/sparse_softmax_cross_entropy_loss/ones_like/Shape"
  input: "import/cross_entropy/total/sparse_softmax_cross_entropy_loss/ones_like/Const"
  device: "/device:CPU:0"
  attr {
    key: "T"
    value {
      type: DT_FLOAT
    }
  }
  attr {
    key: "_output_shapes"
    value {
      list {
        shape {
        }
      }
    }
  }
}
node {
  name: "import/cross_entropy/total/sparse_softmax_cross_entropy_loss/Select"
  op: "Select"
  input: "import/cross_entropy/total/sparse_softmax_cross_entropy_loss/Equal"
  input: "import/cross_entropy/total/sparse_softmax_cross_entropy_loss/ones_like"
  input: "import/cross_entropy/total/sparse_softmax_cross_entropy_loss/num_present"
  device: "/device:CPU:0"
  attr {
    key: "T"
    value {
      type: DT_FLOAT
    }
  }
  attr {
    key: "_output_shapes"
    value {
      list {
        shape {
        }
      }
    }
  }
}
node {
  name: "import/cross_entropy/total/sparse_softmax_cross_entropy_loss/div"
  op: "RealDiv"
  input: "import/cross_entropy/total/sparse_softmax_cross_entropy_loss/Sum_1"
  input: "import/cross_entropy/total/sparse_softmax_cross_entropy_loss/Select"
  device: "/device:CPU:0"
  attr {
    key: "T"
    value {
      type: DT_FLOAT
    }
  }
  attr {
    key: "_output_shapes"
    value {
      list {
        shape {
        }
      }
    }
  }
}
node {
  name: "import/cross_entropy/total/sparse_softmax_cross_entropy_loss/zeros_like"
  op: "Const"
  input: "^import/cross_entropy/total/sparse_softmax_cross_entropy_loss/assert_broadcastable/static_scalar_check_success"
  device: "/device:CPU:0"
  attr {
    key: "_output_shapes"
    value {
      list {
        shape {
        }
      }
    }
  }
  attr {
    key: "dtype"
    value {
      type: DT_FLOAT
    }
  }
  attr {
    key: "value"
    value {
      tensor {
        dtype: DT_FLOAT
        tensor_shape {
        }
        float_val: 0.0
      }
    }
  }
}
node {
  name: "import/cross_entropy/total/sparse_softmax_cross_entropy_loss/value"
  op: "Select"
  input: "import/cross_entropy/total/sparse_softmax_cross_entropy_loss/Greater"
  input: "import/cross_entropy/total/sparse_softmax_cross_entropy_loss/div"
  input: "import/cross_entropy/total/sparse_softmax_cross_entropy_loss/zeros_like"
  device: "/device:CPU:0"
  attr {
    key: "T"
    value {
      type: DT_FLOAT
    }
  }
  attr {
    key: "_output_shapes"
    value {
      list {
        shape {
        }
      }
    }
  }
}
node {
  name: "import/cross_entropy_1/tags"
  op: "Const"
  device: "/device:CPU:0"
  attr {
    key: "_output_shapes"
    value {
      list {
        shape {
        }
      }
    }
  }
  attr {
    key: "dtype"
    value {
      type: DT_STRING
    }
  }
  attr {
    key: "value"
    value {
      tensor {
        dtype: DT_STRING
        tensor_shape {
        }
        string_val: "cross_entropy_1"
      }
    }
  }
}
node {
  name: "import/cross_entropy_1"
  op: "ScalarSummary"
  input: "import/cross_entropy_1/tags"
  input: "import/cross_entropy/total/sparse_softmax_cross_entropy_loss/value"
  device: "/device:CPU:0"
  attr {
    key: "T"
    value {
      type: DT_FLOAT
    }
  }
  attr {
    key: "_output_shapes"
    value {
      list {
        shape {
        }
      }
    }
  }
}
node {
  name: "import/train/gradients/Shape"
  op: "Const"
  device: "/device:CPU:0"
  attr {
    key: "_output_shapes"
    value {
      list {
        shape {
          dim {
          }
        }
      }
    }
  }
  attr {
    key: "dtype"
    value {
      type: DT_INT32
    }
  }
  attr {
    key: "value"
    value {
      tensor {
        dtype: DT_INT32
        tensor_shape {
          dim {
          }
        }
      }
    }
  }
}
node {
  name: "import/train/gradients/Const"
  op: "Const"
  device: "/device:CPU:0"
  attr {
    key: "_output_shapes"
    value {
      list {
        shape {
        }
      }
    }
  }
  attr {
    key: "dtype"
    value {
      type: DT_FLOAT
    }
  }
  attr {
    key: "value"
    value {
      tensor {
        dtype: DT_FLOAT
        tensor_shape {
        }
        float_val: 1.0
      }
    }
  }
}
node {
  name: "import/train/gradients/Fill"
  op: "Fill"
  input: "import/train/gradients/Shape"
  input: "import/train/gradients/Const"
  device: "/device:CPU:0"
  attr {
    key: "T"
    value {
      type: DT_FLOAT
    }
  }
  attr {
    key: "_output_shapes"
    value {
      list {
        shape {
        }
      }
    }
  }
}
node {
  name: "import/train/gradients/cross_entropy/total/sparse_softmax_cross_entropy_loss/value_grad/zeros_like"
  op: "Const"
  device: "/device:CPU:0"
  attr {
    key: "_output_shapes"
    value {
      list {
        shape {
        }
      }
    }
  }
  attr {
    key: "dtype"
    value {
      type: DT_FLOAT
    }
  }
  attr {
    key: "value"
    value {
      tensor {
        dtype: DT_FLOAT
        tensor_shape {
        }
        float_val: 0.0
      }
    }
  }
}
node {
  name: "import/train/gradients/cross_entropy/total/sparse_softmax_cross_entropy_loss/value_grad/Select"
  op: "Select"
  input: "import/cross_entropy/total/sparse_softmax_cross_entropy_loss/Greater"
  input: "import/train/gradients/Fill"
  input: "import/train/gradients/cross_entropy/total/sparse_softmax_cross_entropy_loss/value_grad/zeros_like"
  device: "/device:CPU:0"
  attr {
    key: "T"
    value {
      type: DT_FLOAT
    }
  }
  attr {
    key: "_output_shapes"
    value {
      list {
        shape {
        }
      }
    }
  }
}
node {
  name: "import/train/gradients/cross_entropy/total/sparse_softmax_cross_entropy_loss/value_grad/Select_1"
  op: "Select"
  input: "import/cross_entropy/total/sparse_softmax_cross_entropy_loss/Greater"
  input: "import/train/gradients/cross_entropy/total/sparse_softmax_cross_entropy_loss/value_grad/zeros_like"
  input: "import/train/gradients/Fill"
  device: "/device:CPU:0"
  attr {
    key: "T"
    value {
      type: DT_FLOAT
    }
  }
  attr {
    key: "_output_shapes"
    value {
      list {
        shape {
        }
      }
    }
  }
}
node {
  name: "import/train/gradients/cross_entropy/total/sparse_softmax_cross_entropy_loss/value_grad/tuple/group_deps"
  op: "NoOp"
  input: "^import/train/gradients/cross_entropy/total/sparse_softmax_cross_entropy_loss/value_grad/Select"
  input: "^import/train/gradients/cross_entropy/total/sparse_softmax_cross_entropy_loss/value_grad/Select_1"
  device: "/device:CPU:0"
}
node {
  name: "import/train/gradients/cross_entropy/total/sparse_softmax_cross_entropy_loss/value_grad/tuple/control_dependency"
  op: "Identity"
  input: "import/train/gradients/cross_entropy/total/sparse_softmax_cross_entropy_loss/value_grad/Select"
  input: "^import/train/gradients/cross_entropy/total/sparse_softmax_cross_entropy_loss/value_grad/tuple/group_deps"
  device: "/device:CPU:0"
  attr {
    key: "T"
    value {
      type: DT_FLOAT
    }
  }
  attr {
    key: "_class"
    value {
      list {
        s: "loc:@import/train/gradients/cross_entropy/total/sparse_softmax_cross_entropy_loss/value_grad/Select"
      }
    }
  }
  attr {
    key: "_output_shapes"
    value {
      list {
        shape {
        }
      }
    }
  }
}
node {
  name: "import/train/gradients/cross_entropy/total/sparse_softmax_cross_entropy_loss/value_grad/tuple/control_dependency_1"
  op: "Identity"
  input: "import/train/gradients/cross_entropy/total/sparse_softmax_cross_entropy_loss/value_grad/Select_1"
  input: "^import/train/gradients/cross_entropy/total/sparse_softmax_cross_entropy_loss/value_grad/tuple/group_deps"
  device: "/device:CPU:0"
  attr {
    key: "T"
    value {
      type: DT_FLOAT
    }
  }
  attr {
    key: "_class"
    value {
      list {
        s: "loc:@import/train/gradients/cross_entropy/total/sparse_softmax_cross_entropy_loss/value_grad/Select_1"
      }
    }
  }
  attr {
    key: "_output_shapes"
    value {
      list {
        shape {
        }
      }
    }
  }
}
node {
  name: "import/train/gradients/cross_entropy/total/sparse_softmax_cross_entropy_loss/div_grad/Shape"
  op: "Const"
  device: "/device:CPU:0"
  attr {
    key: "_output_shapes"
    value {
      list {
        shape {
          dim {
          }
        }
      }
    }
  }
  attr {
    key: "dtype"
    value {
      type: DT_INT32
    }
  }
  attr {
    key: "value"
    value {
      tensor {
        dtype: DT_INT32
        tensor_shape {
          dim {
          }
        }
      }
    }
  }
}
node {
  name: "import/train/gradients/cross_entropy/total/sparse_softmax_cross_entropy_loss/div_grad/Shape_1"
  op: "Const"
  device: "/device:CPU:0"
  attr {
    key: "_output_shapes"
    value {
      list {
        shape {
          dim {
          }
        }
      }
    }
  }
  attr {
    key: "dtype"
    value {
      type: DT_INT32
    }
  }
  attr {
    key: "value"
    value {
      tensor {
        dtype: DT_INT32
        tensor_shape {
          dim {
          }
        }
      }
    }
  }
}
node {
  name: "import/train/gradients/cross_entropy/total/sparse_softmax_cross_entropy_loss/div_grad/BroadcastGradientArgs"
  op: "BroadcastGradientArgs"
  input: "import/train/gradients/cross_entropy/total/sparse_softmax_cross_entropy_loss/div_grad/Shape"
  input: "import/train/gradients/cross_entropy/total/sparse_softmax_cross_entropy_loss/div_grad/Shape_1"
  device: "/device:CPU:0"
  attr {
    key: "T"
    value {
      type: DT_INT32
    }
  }
  attr {
    key: "_output_shapes"
    value {
      list {
        shape {
          dim {
            size: -1
          }
        }
        shape {
          dim {
            size: -1
          }
        }
      }
    }
  }
}
node {
  name: "import/train/gradients/cross_entropy/total/sparse_softmax_cross_entropy_loss/div_grad/RealDiv"
  op: "RealDiv"
  input: "import/train/gradients/cross_entropy/total/sparse_softmax_cross_entropy_loss/value_grad/tuple/control_dependency"
  input: "import/cross_entropy/total/sparse_softmax_cross_entropy_loss/Select"
  device: "/device:CPU:0"
  attr {
    key: "T"
    value {
      type: DT_FLOAT
    }
  }
  attr {
    key: "_output_shapes"
    value {
      list {
        shape {
        }
      }
    }
  }
}
node {
  name: "import/train/gradients/cross_entropy/total/sparse_softmax_cross_entropy_loss/div_grad/Sum"
  op: "Sum"
  input: "import/train/gradients/cross_entropy/total/sparse_softmax_cross_entropy_loss/div_grad/RealDiv"
  input: "import/train/gradients/cross_entropy/total/sparse_softmax_cross_entropy_loss/div_grad/BroadcastGradientArgs"
  device: "/device:CPU:0"
  attr {
    key: "T"
    value {
      type: DT_FLOAT
    }
  }
  attr {
    key: "Tidx"
    value {
      type: DT_INT32
    }
  }
  attr {
    key: "_output_shapes"
    value {
      list {
        shape {
          unknown_rank: true
        }
      }
    }
  }
  attr {
    key: "keep_dims"
    value {
      b: false
    }
  }
}
node {
  name: "import/train/gradients/cross_entropy/total/sparse_softmax_cross_entropy_loss/div_grad/Reshape"
  op: "Reshape"
  input: "import/train/gradients/cross_entropy/total/sparse_softmax_cross_entropy_loss/div_grad/Sum"
  input: "import/train/gradients/cross_entropy/total/sparse_softmax_cross_entropy_loss/div_grad/Shape"
  device: "/device:CPU:0"
  attr {
    key: "T"
    value {
      type: DT_FLOAT
    }
  }
  attr {
    key: "Tshape"
    value {
      type: DT_INT32
    }
  }
  attr {
    key: "_output_shapes"
    value {
      list {
        shape {
        }
      }
    }
  }
}
node {
  name: "import/train/gradients/cross_entropy/total/sparse_softmax_cross_entropy_loss/div_grad/Neg"
  op: "Neg"
  input: "import/cross_entropy/total/sparse_softmax_cross_entropy_loss/Sum_1"
  device: "/device:CPU:0"
  attr {
    key: "T"
    value {
      type: DT_FLOAT
    }
  }
  attr {
    key: "_output_shapes"
    value {
      list {
        shape {
        }
      }
    }
  }
}
node {
  name: "import/train/gradients/cross_entropy/total/sparse_softmax_cross_entropy_loss/div_grad/RealDiv_1"
  op: "RealDiv"
  input: "import/train/gradients/cross_entropy/total/sparse_softmax_cross_entropy_loss/div_grad/Neg"
  input: "import/cross_entropy/total/sparse_softmax_cross_entropy_loss/Select"
  device: "/device:CPU:0"
  attr {
    key: "T"
    value {
      type: DT_FLOAT
    }
  }
  attr {
    key: "_output_shapes"
    value {
      list {
        shape {
        }
      }
    }
  }
}
node {
  name: "import/train/gradients/cross_entropy/total/sparse_softmax_cross_entropy_loss/div_grad/RealDiv_2"
  op: "RealDiv"
  input: "import/train/gradients/cross_entropy/total/sparse_softmax_cross_entropy_loss/div_grad/RealDiv_1"
  input: "import/cross_entropy/total/sparse_softmax_cross_entropy_loss/Select"
  device: "/device:CPU:0"
  attr {
    key: "T"
    value {
      type: DT_FLOAT
    }
  }
  attr {
    key: "_output_shapes"
    value {
      list {
        shape {
        }
      }
    }
  }
}
node {
  name: "import/train/gradients/cross_entropy/total/sparse_softmax_cross_entropy_loss/div_grad/mul"
  op: "Mul"
  input: "import/train/gradients/cross_entropy/total/sparse_softmax_cross_entropy_loss/value_grad/tuple/control_dependency"
  input: "import/train/gradients/cross_entropy/total/sparse_softmax_cross_entropy_loss/div_grad/RealDiv_2"
  device: "/device:CPU:0"
  attr {
    key: "T"
    value {
      type: DT_FLOAT
    }
  }
  attr {
    key: "_output_shapes"
    value {
      list {
        shape {
        }
      }
    }
  }
}
node {
  name: "import/train/gradients/cross_entropy/total/sparse_softmax_cross_entropy_loss/div_grad/Sum_1"
  op: "Sum"
  input: "import/train/gradients/cross_entropy/total/sparse_softmax_cross_entropy_loss/div_grad/mul"
  input: "import/train/gradients/cross_entropy/total/sparse_softmax_cross_entropy_loss/div_grad/BroadcastGradientArgs:1"
  device: "/device:CPU:0"
  attr {
    key: "T"
    value {
      type: DT_FLOAT
    }
  }
  attr {
    key: "Tidx"
    value {
      type: DT_INT32
    }
  }
  attr {
    key: "_output_shapes"
    value {
      list {
        shape {
          unknown_rank: true
        }
      }
    }
  }
  attr {
    key: "keep_dims"
    value {
      b: false
    }
  }
}
node {
  name: "import/train/gradients/cross_entropy/total/sparse_softmax_cross_entropy_loss/div_grad/Reshape_1"
  op: "Reshape"
  input: "import/train/gradients/cross_entropy/total/sparse_softmax_cross_entropy_loss/div_grad/Sum_1"
  input: "import/train/gradients/cross_entropy/total/sparse_softmax_cross_entropy_loss/div_grad/Shape_1"
  device: "/device:CPU:0"
  attr {
    key: "T"
    value {
      type: DT_FLOAT
    }
  }
  attr {
    key: "Tshape"
    value {
      type: DT_INT32
    }
  }
  attr {
    key: "_output_shapes"
    value {
      list {
        shape {
        }
      }
    }
  }
}
node {
  name: "import/train/gradients/cross_entropy/total/sparse_softmax_cross_entropy_loss/div_grad/tuple/group_deps"
  op: "NoOp"
  input: "^import/train/gradients/cross_entropy/total/sparse_softmax_cross_entropy_loss/div_grad/Reshape"
  input: "^import/train/gradients/cross_entropy/total/sparse_softmax_cross_entropy_loss/div_grad/Reshape_1"
  device: "/device:CPU:0"
}
node {
  name: "import/train/gradients/cross_entropy/total/sparse_softmax_cross_entropy_loss/div_grad/tuple/control_dependency"
  op: "Identity"
  input: "import/train/gradients/cross_entropy/total/sparse_softmax_cross_entropy_loss/div_grad/Reshape"
  input: "^import/train/gradients/cross_entropy/total/sparse_softmax_cross_entropy_loss/div_grad/tuple/group_deps"
  device: "/device:CPU:0"
  attr {
    key: "T"
    value {
      type: DT_FLOAT
    }
  }
  attr {
    key: "_class"
    value {
      list {
        s: "loc:@import/train/gradients/cross_entropy/total/sparse_softmax_cross_entropy_loss/div_grad/Reshape"
      }
    }
  }
  attr {
    key: "_output_shapes"
    value {
      list {
        shape {
        }
      }
    }
  }
}
node {
  name: "import/train/gradients/cross_entropy/total/sparse_softmax_cross_entropy_loss/div_grad/tuple/control_dependency_1"
  op: "Identity"
  input: "import/train/gradients/cross_entropy/total/sparse_softmax_cross_entropy_loss/div_grad/Reshape_1"
  input: "^import/train/gradients/cross_entropy/total/sparse_softmax_cross_entropy_loss/div_grad/tuple/group_deps"
  device: "/device:CPU:0"
  attr {
    key: "T"
    value {
      type: DT_FLOAT
    }
  }
  attr {
    key: "_class"
    value {
      list {
        s: "loc:@import/train/gradients/cross_entropy/total/sparse_softmax_cross_entropy_loss/div_grad/Reshape_1"
      }
    }
  }
  attr {
    key: "_output_shapes"
    value {
      list {
        shape {
        }
      }
    }
  }
}
node {
  name: "import/train/gradients/cross_entropy/total/sparse_softmax_cross_entropy_loss/Sum_1_grad/Reshape/shape"
  op: "Const"
  device: "/device:CPU:0"
  attr {
    key: "_output_shapes"
    value {
      list {
        shape {
          dim {
          }
        }
      }
    }
  }
  attr {
    key: "dtype"
    value {
      type: DT_INT32
    }
  }
  attr {
    key: "value"
    value {
      tensor {
        dtype: DT_INT32
        tensor_shape {
          dim {
          }
        }
      }
    }
  }
}
node {
  name: "import/train/gradients/cross_entropy/total/sparse_softmax_cross_entropy_loss/Sum_1_grad/Reshape"
  op: "Reshape"
  input: "import/train/gradients/cross_entropy/total/sparse_softmax_cross_entropy_loss/div_grad/tuple/control_dependency"
  input: "import/train/gradients/cross_entropy/total/sparse_softmax_cross_entropy_loss/Sum_1_grad/Reshape/shape"
  device: "/device:CPU:0"
  attr {
    key: "T"
    value {
      type: DT_FLOAT
    }
  }
  attr {
    key: "Tshape"
    value {
      type: DT_INT32
    }
  }
  attr {
    key: "_output_shapes"
    value {
      list {
        shape {
        }
      }
    }
  }
}
node {
  name: "import/train/gradients/cross_entropy/total/sparse_softmax_cross_entropy_loss/Sum_1_grad/Tile/multiples"
  op: "Const"
  device: "/device:CPU:0"
  attr {
    key: "_output_shapes"
    value {
      list {
        shape {
          dim {
          }
        }
      }
    }
  }
  attr {
    key: "dtype"
    value {
      type: DT_INT32
    }
  }
  attr {
    key: "value"
    value {
      tensor {
        dtype: DT_INT32
        tensor_shape {
          dim {
          }
        }
      }
    }
  }
}
node {
  name: "import/train/gradients/cross_entropy/total/sparse_softmax_cross_entropy_loss/Sum_1_grad/Tile"
  op: "Tile"
  input: "import/train/gradients/cross_entropy/total/sparse_softmax_cross_entropy_loss/Sum_1_grad/Reshape"
  input: "import/train/gradients/cross_entropy/total/sparse_softmax_cross_entropy_loss/Sum_1_grad/Tile/multiples"
  device: "/device:CPU:0"
  attr {
    key: "T"
    value {
      type: DT_FLOAT
    }
  }
  attr {
    key: "Tmultiples"
    value {
      type: DT_INT32
    }
  }
  attr {
    key: "_output_shapes"
    value {
      list {
        shape {
        }
      }
    }
  }
}
node {
  name: "import/train/gradients/cross_entropy/total/sparse_softmax_cross_entropy_loss/Select_grad/zeros_like"
  op: "Const"
  device: "/device:CPU:0"
  attr {
    key: "_output_shapes"
    value {
      list {
        shape {
        }
      }
    }
  }
  attr {
    key: "dtype"
    value {
      type: DT_FLOAT
    }
  }
  attr {
    key: "value"
    value {
      tensor {
        dtype: DT_FLOAT
        tensor_shape {
        }
        float_val: 0.0
      }
    }
  }
}
node {
  name: "import/train/gradients/cross_entropy/total/sparse_softmax_cross_entropy_loss/Select_grad/Select"
  op: "Select"
  input: "import/cross_entropy/total/sparse_softmax_cross_entropy_loss/Equal"
  input: "import/train/gradients/cross_entropy/total/sparse_softmax_cross_entropy_loss/div_grad/tuple/control_dependency_1"
  input: "import/train/gradients/cross_entropy/total/sparse_softmax_cross_entropy_loss/Select_grad/zeros_like"
  device: "/device:CPU:0"
  attr {
    key: "T"
    value {
      type: DT_FLOAT
    }
  }
  attr {
    key: "_output_shapes"
    value {
      list {
        shape {
        }
      }
    }
  }
}
node {
  name: "import/train/gradients/cross_entropy/total/sparse_softmax_cross_entropy_loss/Select_grad/Select_1"
  op: "Select"
  input: "import/cross_entropy/total/sparse_softmax_cross_entropy_loss/Equal"
  input: "import/train/gradients/cross_entropy/total/sparse_softmax_cross_entropy_loss/Select_grad/zeros_like"
  input: "import/train/gradients/cross_entropy/total/sparse_softmax_cross_entropy_loss/div_grad/tuple/control_dependency_1"
  device: "/device:CPU:0"
  attr {
    key: "T"
    value {
      type: DT_FLOAT
    }
  }
  attr {
    key: "_output_shapes"
    value {
      list {
        shape {
        }
      }
    }
  }
}
node {
  name: "import/train/gradients/cross_entropy/total/sparse_softmax_cross_entropy_loss/Select_grad/tuple/group_deps"
  op: "NoOp"
  input: "^import/train/gradients/cross_entropy/total/sparse_softmax_cross_entropy_loss/Select_grad/Select"
  input: "^import/train/gradients/cross_entropy/total/sparse_softmax_cross_entropy_loss/Select_grad/Select_1"
  device: "/device:CPU:0"
}
node {
  name: "import/train/gradients/cross_entropy/total/sparse_softmax_cross_entropy_loss/Select_grad/tuple/control_dependency"
  op: "Identity"
  input: "import/train/gradients/cross_entropy/total/sparse_softmax_cross_entropy_loss/Select_grad/Select"
  input: "^import/train/gradients/cross_entropy/total/sparse_softmax_cross_entropy_loss/Select_grad/tuple/group_deps"
  device: "/device:CPU:0"
  attr {
    key: "T"
    value {
      type: DT_FLOAT
    }
  }
  attr {
    key: "_class"
    value {
      list {
        s: "loc:@import/train/gradients/cross_entropy/total/sparse_softmax_cross_entropy_loss/Select_grad/Select"
      }
    }
  }
  attr {
    key: "_output_shapes"
    value {
      list {
        shape {
        }
      }
    }
  }
}
node {
  name: "import/train/gradients/cross_entropy/total/sparse_softmax_cross_entropy_loss/Select_grad/tuple/control_dependency_1"
  op: "Identity"
  input: "import/train/gradients/cross_entropy/total/sparse_softmax_cross_entropy_loss/Select_grad/Select_1"
  input: "^import/train/gradients/cross_entropy/total/sparse_softmax_cross_entropy_loss/Select_grad/tuple/group_deps"
  device: "/device:CPU:0"
  attr {
    key: "T"
    value {
      type: DT_FLOAT
    }
  }
  attr {
    key: "_class"
    value {
      list {
        s: "loc:@import/train/gradients/cross_entropy/total/sparse_softmax_cross_entropy_loss/Select_grad/Select_1"
      }
    }
  }
  attr {
    key: "_output_shapes"
    value {
      list {
        shape {
        }
      }
    }
  }
}
node {
  name: "import/train/gradients/cross_entropy/total/sparse_softmax_cross_entropy_loss/Sum_grad/Reshape/shape"
  op: "Const"
  device: "/device:CPU:0"
  attr {
    key: "_output_shapes"
    value {
      list {
        shape {
          dim {
            size: 1
          }
        }
      }
    }
  }
  attr {
    key: "dtype"
    value {
      type: DT_INT32
    }
  }
  attr {
    key: "value"
    value {
      tensor {
        dtype: DT_INT32
        tensor_shape {
          dim {
            size: 1
          }
        }
        int_val: 1
      }
    }
  }
}
node {
  name: "import/train/gradients/cross_entropy/total/sparse_softmax_cross_entropy_loss/Sum_grad/Reshape"
  op: "Reshape"
  input: "import/train/gradients/cross_entropy/total/sparse_softmax_cross_entropy_loss/Sum_1_grad/Tile"
  input: "import/train/gradients/cross_entropy/total/sparse_softmax_cross_entropy_loss/Sum_grad/Reshape/shape"
  device: "/device:CPU:0"
  attr {
    key: "T"
    value {
      type: DT_FLOAT
    }
  }
  attr {
    key: "Tshape"
    value {
      type: DT_INT32
    }
  }
  attr {
    key: "_output_shapes"
    value {
      list {
        shape {
          dim {
            size: 1
          }
        }
      }
    }
  }
}
node {
  name: "import/train/gradients/cross_entropy/total/sparse_softmax_cross_entropy_loss/Sum_grad/Shape"
  op: "Shape"
  input: "import/cross_entropy/total/sparse_softmax_cross_entropy_loss/Mul"
  device: "/device:CPU:0"
  attr {
    key: "T"
    value {
      type: DT_FLOAT
    }
  }
  attr {
    key: "_output_shapes"
    value {
      list {
        shape {
          dim {
            size: 1
          }
        }
      }
    }
  }
  attr {
    key: "out_type"
    value {
      type: DT_INT32
    }
  }
}
node {
  name: "import/train/gradients/cross_entropy/total/sparse_softmax_cross_entropy_loss/Sum_grad/Tile"
  op: "Tile"
  input: "import/train/gradients/cross_entropy/total/sparse_softmax_cross_entropy_loss/Sum_grad/Reshape"
  input: "import/train/gradients/cross_entropy/total/sparse_softmax_cross_entropy_loss/Sum_grad/Shape"
  device: "/device:CPU:0"
  attr {
    key: "T"
    value {
      type: DT_FLOAT
    }
  }
  attr {
    key: "Tmultiples"
    value {
      type: DT_INT32
    }
  }
  attr {
    key: "_output_shapes"
    value {
      list {
        shape {
          dim {
            size: -1
          }
        }
      }
    }
  }
}
node {
  name: "import/train/gradients/cross_entropy/total/sparse_softmax_cross_entropy_loss/Mul_grad/Shape"
  op: "Shape"
  input: "import/cross_entropy/total/sparse_softmax_cross_entropy_loss/xentropy/xentropy"
  device: "/device:CPU:0"
  attr {
    key: "T"
    value {
      type: DT_FLOAT
    }
  }
  attr {
    key: "_output_shapes"
    value {
      list {
        shape {
          dim {
            size: 1
          }
        }
      }
    }
  }
  attr {
    key: "out_type"
    value {
      type: DT_INT32
    }
  }
}
node {
  name: "import/train/gradients/cross_entropy/total/sparse_softmax_cross_entropy_loss/Mul_grad/Shape_1"
  op: "Const"
  device: "/device:CPU:0"
  attr {
    key: "_output_shapes"
    value {
      list {
        shape {
          dim {
          }
        }
      }
    }
  }
  attr {
    key: "dtype"
    value {
      type: DT_INT32
    }
  }
  attr {
    key: "value"
    value {
      tensor {
        dtype: DT_INT32
        tensor_shape {
          dim {
          }
        }
      }
    }
  }
}
node {
  name: "import/train/gradients/cross_entropy/total/sparse_softmax_cross_entropy_loss/Mul_grad/BroadcastGradientArgs"
  op: "BroadcastGradientArgs"
  input: "import/train/gradients/cross_entropy/total/sparse_softmax_cross_entropy_loss/Mul_grad/Shape"
  input: "import/train/gradients/cross_entropy/total/sparse_softmax_cross_entropy_loss/Mul_grad/Shape_1"
  device: "/device:CPU:0"
  attr {
    key: "T"
    value {
      type: DT_INT32
    }
  }
  attr {
    key: "_output_shapes"
    value {
      list {
        shape {
          dim {
            size: -1
          }
        }
        shape {
          dim {
            size: -1
          }
        }
      }
    }
  }
}
node {
  name: "import/train/gradients/cross_entropy/total/sparse_softmax_cross_entropy_loss/Mul_grad/mul"
  op: "Mul"
  input: "import/train/gradients/cross_entropy/total/sparse_softmax_cross_entropy_loss/Sum_grad/Tile"
  input: "import/cross_entropy/total/sparse_softmax_cross_entropy_loss/Const"
  device: "/device:CPU:0"
  attr {
    key: "T"
    value {
      type: DT_FLOAT
    }
  }
  attr {
    key: "_output_shapes"
    value {
      list {
        shape {
          dim {
            size: -1
          }
        }
      }
    }
  }
}
node {
  name: "import/train/gradients/cross_entropy/total/sparse_softmax_cross_entropy_loss/Mul_grad/Sum"
  op: "Sum"
  input: "import/train/gradients/cross_entropy/total/sparse_softmax_cross_entropy_loss/Mul_grad/mul"
  input: "import/train/gradients/cross_entropy/total/sparse_softmax_cross_entropy_loss/Mul_grad/BroadcastGradientArgs"
  device: "/device:CPU:0"
  attr {
    key: "T"
    value {
      type: DT_FLOAT
    }
  }
  attr {
    key: "Tidx"
    value {
      type: DT_INT32
    }
  }
  attr {
    key: "_output_shapes"
    value {
      list {
        shape {
          unknown_rank: true
        }
      }
    }
  }
  attr {
    key: "keep_dims"
    value {
      b: false
    }
  }
}
node {
  name: "import/train/gradients/cross_entropy/total/sparse_softmax_cross_entropy_loss/Mul_grad/Reshape"
  op: "Reshape"
  input: "import/train/gradients/cross_entropy/total/sparse_softmax_cross_entropy_loss/Mul_grad/Sum"
  input: "import/train/gradients/cross_entropy/total/sparse_softmax_cross_entropy_loss/Mul_grad/Shape"
  device: "/device:CPU:0"
  attr {
    key: "T"
    value {
      type: DT_FLOAT
    }
  }
  attr {
    key: "Tshape"
    value {
      type: DT_INT32
    }
  }
  attr {
    key: "_output_shapes"
    value {
      list {
        shape {
          dim {
            size: -1
          }
        }
      }
    }
  }
}
node {
  name: "import/train/gradients/cross_entropy/total/sparse_softmax_cross_entropy_loss/Mul_grad/mul_1"
  op: "Mul"
  input: "import/cross_entropy/total/sparse_softmax_cross_entropy_loss/xentropy/xentropy"
  input: "import/train/gradients/cross_entropy/total/sparse_softmax_cross_entropy_loss/Sum_grad/Tile"
  device: "/device:CPU:0"
  attr {
    key: "T"
    value {
      type: DT_FLOAT
    }
  }
  attr {
    key: "_output_shapes"
    value {
      list {
        shape {
          dim {
            size: -1
          }
        }
      }
    }
  }
}
node {
  name: "import/train/gradients/cross_entropy/total/sparse_softmax_cross_entropy_loss/Mul_grad/Sum_1"
  op: "Sum"
  input: "import/train/gradients/cross_entropy/total/sparse_softmax_cross_entropy_loss/Mul_grad/mul_1"
  input: "import/train/gradients/cross_entropy/total/sparse_softmax_cross_entropy_loss/Mul_grad/BroadcastGradientArgs:1"
  device: "/device:CPU:0"
  attr {
    key: "T"
    value {
      type: DT_FLOAT
    }
  }
  attr {
    key: "Tidx"
    value {
      type: DT_INT32
    }
  }
  attr {
    key: "_output_shapes"
    value {
      list {
        shape {
          unknown_rank: true
        }
      }
    }
  }
  attr {
    key: "keep_dims"
    value {
      b: false
    }
  }
}
node {
  name: "import/train/gradients/cross_entropy/total/sparse_softmax_cross_entropy_loss/Mul_grad/Reshape_1"
  op: "Reshape"
  input: "import/train/gradients/cross_entropy/total/sparse_softmax_cross_entropy_loss/Mul_grad/Sum_1"
  input: "import/train/gradients/cross_entropy/total/sparse_softmax_cross_entropy_loss/Mul_grad/Shape_1"
  device: "/device:CPU:0"
  attr {
    key: "T"
    value {
      type: DT_FLOAT
    }
  }
  attr {
    key: "Tshape"
    value {
      type: DT_INT32
    }
  }
  attr {
    key: "_output_shapes"
    value {
      list {
        shape {
        }
      }
    }
  }
}
node {
  name: "import/train/gradients/cross_entropy/total/sparse_softmax_cross_entropy_loss/Mul_grad/tuple/group_deps"
  op: "NoOp"
  input: "^import/train/gradients/cross_entropy/total/sparse_softmax_cross_entropy_loss/Mul_grad/Reshape"
  input: "^import/train/gradients/cross_entropy/total/sparse_softmax_cross_entropy_loss/Mul_grad/Reshape_1"
  device: "/device:CPU:0"
}
node {
  name: "import/train/gradients/cross_entropy/total/sparse_softmax_cross_entropy_loss/Mul_grad/tuple/control_dependency"
  op: "Identity"
  input: "import/train/gradients/cross_entropy/total/sparse_softmax_cross_entropy_loss/Mul_grad/Reshape"
  input: "^import/train/gradients/cross_entropy/total/sparse_softmax_cross_entropy_loss/Mul_grad/tuple/group_deps"
  device: "/device:CPU:0"
  attr {
    key: "T"
    value {
      type: DT_FLOAT
    }
  }
  attr {
    key: "_class"
    value {
      list {
        s: "loc:@import/train/gradients/cross_entropy/total/sparse_softmax_cross_entropy_loss/Mul_grad/Reshape"
      }
    }
  }
  attr {
    key: "_output_shapes"
    value {
      list {
        shape {
          dim {
            size: -1
          }
        }
      }
    }
  }
}
node {
  name: "import/train/gradients/cross_entropy/total/sparse_softmax_cross_entropy_loss/Mul_grad/tuple/control_dependency_1"
  op: "Identity"
  input: "import/train/gradients/cross_entropy/total/sparse_softmax_cross_entropy_loss/Mul_grad/Reshape_1"
  input: "^import/train/gradients/cross_entropy/total/sparse_softmax_cross_entropy_loss/Mul_grad/tuple/group_deps"
  device: "/device:CPU:0"
  attr {
    key: "T"
    value {
      type: DT_FLOAT
    }
  }
  attr {
    key: "_class"
    value {
      list {
        s: "loc:@import/train/gradients/cross_entropy/total/sparse_softmax_cross_entropy_loss/Mul_grad/Reshape_1"
      }
    }
  }
  attr {
    key: "_output_shapes"
    value {
      list {
        shape {
        }
      }
    }
  }
}
node {
  name: "import/train/gradients/cross_entropy/total/sparse_softmax_cross_entropy_loss/num_present_grad/Reshape/shape"
  op: "Const"
  device: "/device:CPU:0"
  attr {
    key: "_output_shapes"
    value {
      list {
        shape {
          dim {
            size: 1
          }
        }
      }
    }
  }
  attr {
    key: "dtype"
    value {
      type: DT_INT32
    }
  }
  attr {
    key: "value"
    value {
      tensor {
        dtype: DT_INT32
        tensor_shape {
          dim {
            size: 1
          }
        }
        int_val: 1
      }
    }
  }
}
node {
  name: "import/train/gradients/cross_entropy/total/sparse_softmax_cross_entropy_loss/num_present_grad/Reshape"
  op: "Reshape"
  input: "import/train/gradients/cross_entropy/total/sparse_softmax_cross_entropy_loss/Select_grad/tuple/control_dependency_1"
  input: "import/train/gradients/cross_entropy/total/sparse_softmax_cross_entropy_loss/num_present_grad/Reshape/shape"
  device: "/device:CPU:0"
  attr {
    key: "T"
    value {
      type: DT_FLOAT
    }
  }
  attr {
    key: "Tshape"
    value {
      type: DT_INT32
    }
  }
  attr {
    key: "_output_shapes"
    value {
      list {
        shape {
          dim {
            size: 1
          }
        }
      }
    }
  }
}
node {
  name: "import/train/gradients/cross_entropy/total/sparse_softmax_cross_entropy_loss/num_present_grad/Shape"
  op: "Shape"
  input: "import/cross_entropy/total/sparse_softmax_cross_entropy_loss/num_present/broadcast_weights"
  device: "/device:CPU:0"
  attr {
    key: "T"
    value {
      type: DT_FLOAT
    }
  }
  attr {
    key: "_output_shapes"
    value {
      list {
        shape {
          dim {
            size: 1
          }
        }
      }
    }
  }
  attr {
    key: "out_type"
    value {
      type: DT_INT32
    }
  }
}
node {
  name: "import/train/gradients/cross_entropy/total/sparse_softmax_cross_entropy_loss/num_present_grad/Tile"
  op: "Tile"
  input: "import/train/gradients/cross_entropy/total/sparse_softmax_cross_entropy_loss/num_present_grad/Reshape"
  input: "import/train/gradients/cross_entropy/total/sparse_softmax_cross_entropy_loss/num_present_grad/Shape"
  device: "/device:CPU:0"
  attr {
    key: "T"
    value {
      type: DT_FLOAT
    }
  }
  attr {
    key: "Tmultiples"
    value {
      type: DT_INT32
    }
  }
  attr {
    key: "_output_shapes"
    value {
      list {
        shape {
          dim {
            size: -1
          }
        }
      }
    }
  }
}
node {
  name: "import/train/gradients/cross_entropy/total/sparse_softmax_cross_entropy_loss/num_present/broadcast_weights_grad/Shape"
  op: "Const"
  device: "/device:CPU:0"
  attr {
    key: "_output_shapes"
    value {
      list {
        shape {
          dim {
          }
        }
      }
    }
  }
  attr {
    key: "dtype"
    value {
      type: DT_INT32
    }
  }
  attr {
    key: "value"
    value {
      tensor {
        dtype: DT_INT32
        tensor_shape {
          dim {
          }
        }
      }
    }
  }
}
node {
  name: "import/train/gradients/cross_entropy/total/sparse_softmax_cross_entropy_loss/num_present/broadcast_weights_grad/Shape_1"
  op: "Shape"
  input: "import/cross_entropy/total/sparse_softmax_cross_entropy_loss/num_present/broadcast_weights/ones_like"
  device: "/device:CPU:0"
  attr {
    key: "T"
    value {
      type: DT_FLOAT
    }
  }
  attr {
    key: "_output_shapes"
    value {
      list {
        shape {
          dim {
            size: 1
          }
        }
      }
    }
  }
  attr {
    key: "out_type"
    value {
      type: DT_INT32
    }
  }
}
node {
  name: "import/train/gradients/cross_entropy/total/sparse_softmax_cross_entropy_loss/num_present/broadcast_weights_grad/BroadcastGradientArgs"
  op: "BroadcastGradientArgs"
  input: "import/train/gradients/cross_entropy/total/sparse_softmax_cross_entropy_loss/num_present/broadcast_weights_grad/Shape"
  input: "import/train/gradients/cross_entropy/total/sparse_softmax_cross_entropy_loss/num_present/broadcast_weights_grad/Shape_1"
  device: "/device:CPU:0"
  attr {
    key: "T"
    value {
      type: DT_INT32
    }
  }
  attr {
    key: "_output_shapes"
    value {
      list {
        shape {
          dim {
            size: -1
          }
        }
        shape {
          dim {
            size: -1
          }
        }
      }
    }
  }
}
node {
  name: "import/train/gradients/cross_entropy/total/sparse_softmax_cross_entropy_loss/num_present/broadcast_weights_grad/mul"
  op: "Mul"
  input: "import/train/gradients/cross_entropy/total/sparse_softmax_cross_entropy_loss/num_present_grad/Tile"
  input: "import/cross_entropy/total/sparse_softmax_cross_entropy_loss/num_present/broadcast_weights/ones_like"
  device: "/device:CPU:0"
  attr {
    key: "T"
    value {
      type: DT_FLOAT
    }
  }
  attr {
    key: "_output_shapes"
    value {
      list {
        shape {
          dim {
            size: -1
          }
        }
      }
    }
  }
}
node {
  name: "import/train/gradients/cross_entropy/total/sparse_softmax_cross_entropy_loss/num_present/broadcast_weights_grad/Sum"
  op: "Sum"
  input: "import/train/gradients/cross_entropy/total/sparse_softmax_cross_entropy_loss/num_present/broadcast_weights_grad/mul"
  input: "import/train/gradients/cross_entropy/total/sparse_softmax_cross_entropy_loss/num_present/broadcast_weights_grad/BroadcastGradientArgs"
  device: "/device:CPU:0"
  attr {
    key: "T"
    value {
      type: DT_FLOAT
    }
  }
  attr {
    key: "Tidx"
    value {
      type: DT_INT32
    }
  }
  attr {
    key: "_output_shapes"
    value {
      list {
        shape {
          unknown_rank: true
        }
      }
    }
  }
  attr {
    key: "keep_dims"
    value {
      b: false
    }
  }
}
node {
  name: "import/train/gradients/cross_entropy/total/sparse_softmax_cross_entropy_loss/num_present/broadcast_weights_grad/Reshape"
  op: "Reshape"
  input: "import/train/gradients/cross_entropy/total/sparse_softmax_cross_entropy_loss/num_present/broadcast_weights_grad/Sum"
  input: "import/train/gradients/cross_entropy/total/sparse_softmax_cross_entropy_loss/num_present/broadcast_weights_grad/Shape"
  device: "/device:CPU:0"
  attr {
    key: "T"
    value {
      type: DT_FLOAT
    }
  }
  attr {
    key: "Tshape"
    value {
      type: DT_INT32
    }
  }
  attr {
    key: "_output_shapes"
    value {
      list {
        shape {
        }
      }
    }
  }
}
node {
  name: "import/train/gradients/cross_entropy/total/sparse_softmax_cross_entropy_loss/num_present/broadcast_weights_grad/mul_1"
  op: "Mul"
  input: "import/cross_entropy/total/sparse_softmax_cross_entropy_loss/num_present/Select"
  input: "import/train/gradients/cross_entropy/total/sparse_softmax_cross_entropy_loss/num_present_grad/Tile"
  device: "/device:CPU:0"
  attr {
    key: "T"
    value {
      type: DT_FLOAT
    }
  }
  attr {
    key: "_output_shapes"
    value {
      list {
        shape {
          dim {
            size: -1
          }
        }
      }
    }
  }
}
node {
  name: "import/train/gradients/cross_entropy/total/sparse_softmax_cross_entropy_loss/num_present/broadcast_weights_grad/Sum_1"
  op: "Sum"
  input: "import/train/gradients/cross_entropy/total/sparse_softmax_cross_entropy_loss/num_present/broadcast_weights_grad/mul_1"
  input: "import/train/gradients/cross_entropy/total/sparse_softmax_cross_entropy_loss/num_present/broadcast_weights_grad/BroadcastGradientArgs:1"
  device: "/device:CPU:0"
  attr {
    key: "T"
    value {
      type: DT_FLOAT
    }
  }
  attr {
    key: "Tidx"
    value {
      type: DT_INT32
    }
  }
  attr {
    key: "_output_shapes"
    value {
      list {
        shape {
          unknown_rank: true
        }
      }
    }
  }
  attr {
    key: "keep_dims"
    value {
      b: false
    }
  }
}
node {
  name: "import/train/gradients/cross_entropy/total/sparse_softmax_cross_entropy_loss/num_present/broadcast_weights_grad/Reshape_1"
  op: "Reshape"
  input: "import/train/gradients/cross_entropy/total/sparse_softmax_cross_entropy_loss/num_present/broadcast_weights_grad/Sum_1"
  input: "import/train/gradients/cross_entropy/total/sparse_softmax_cross_entropy_loss/num_present/broadcast_weights_grad/Shape_1"
  device: "/device:CPU:0"
  attr {
    key: "T"
    value {
      type: DT_FLOAT
    }
  }
  attr {
    key: "Tshape"
    value {
      type: DT_INT32
    }
  }
  attr {
    key: "_output_shapes"
    value {
      list {
        shape {
          dim {
            size: -1
          }
        }
      }
    }
  }
}
node {
  name: "import/train/gradients/cross_entropy/total/sparse_softmax_cross_entropy_loss/num_present/broadcast_weights_grad/tuple/group_deps"
  op: "NoOp"
  input: "^import/train/gradients/cross_entropy/total/sparse_softmax_cross_entropy_loss/num_present/broadcast_weights_grad/Reshape"
  input: "^import/train/gradients/cross_entropy/total/sparse_softmax_cross_entropy_loss/num_present/broadcast_weights_grad/Reshape_1"
  device: "/device:CPU:0"
}
node {
  name: "import/train/gradients/cross_entropy/total/sparse_softmax_cross_entropy_loss/num_present/broadcast_weights_grad/tuple/control_dependency"
  op: "Identity"
  input: "import/train/gradients/cross_entropy/total/sparse_softmax_cross_entropy_loss/num_present/broadcast_weights_grad/Reshape"
  input: "^import/train/gradients/cross_entropy/total/sparse_softmax_cross_entropy_loss/num_present/broadcast_weights_grad/tuple/group_deps"
  device: "/device:CPU:0"
  attr {
    key: "T"
    value {
      type: DT_FLOAT
    }
  }
  attr {
    key: "_class"
    value {
      list {
        s: "loc:@import/train/gradients/cross_entropy/total/sparse_softmax_cross_entropy_loss/num_present/broadcast_weights_grad/Reshape"
      }
    }
  }
  attr {
    key: "_output_shapes"
    value {
      list {
        shape {
        }
      }
    }
  }
}
node {
  name: "import/train/gradients/cross_entropy/total/sparse_softmax_cross_entropy_loss/num_present/broadcast_weights_grad/tuple/control_dependency_1"
  op: "Identity"
  input: "import/train/gradients/cross_entropy/total/sparse_softmax_cross_entropy_loss/num_present/broadcast_weights_grad/Reshape_1"
  input: "^import/train/gradients/cross_entropy/total/sparse_softmax_cross_entropy_loss/num_present/broadcast_weights_grad/tuple/group_deps"
  device: "/device:CPU:0"
  attr {
    key: "T"
    value {
      type: DT_FLOAT
    }
  }
  attr {
    key: "_class"
    value {
      list {
        s: "loc:@import/train/gradients/cross_entropy/total/sparse_softmax_cross_entropy_loss/num_present/broadcast_weights_grad/Reshape_1"
      }
    }
  }
  attr {
    key: "_output_shapes"
    value {
      list {
        shape {
          dim {
            size: -1
          }
        }
      }
    }
  }
}
node {
  name: "import/train/gradients/cross_entropy/total/sparse_softmax_cross_entropy_loss/num_present/broadcast_weights/ones_like_grad/Const"
  op: "Const"
  device: "/device:CPU:0"
  attr {
    key: "_output_shapes"
    value {
      list {
        shape {
          dim {
            size: 1
          }
        }
      }
    }
  }
  attr {
    key: "dtype"
    value {
      type: DT_INT32
    }
  }
  attr {
    key: "value"
    value {
      tensor {
        dtype: DT_INT32
        tensor_shape {
          dim {
            size: 1
          }
        }
        int_val: 0
      }
    }
  }
}
node {
  name: "import/train/gradients/cross_entropy/total/sparse_softmax_cross_entropy_loss/num_present/broadcast_weights/ones_like_grad/Sum"
  op: "Sum"
  input: "import/train/gradients/cross_entropy/total/sparse_softmax_cross_entropy_loss/num_present/broadcast_weights_grad/tuple/control_dependency_1"
  input: "import/train/gradients/cross_entropy/total/sparse_softmax_cross_entropy_loss/num_present/broadcast_weights/ones_like_grad/Const"
  device: "/device:CPU:0"
  attr {
    key: "T"
    value {
      type: DT_FLOAT
    }
  }
  attr {
    key: "Tidx"
    value {
      type: DT_INT32
    }
  }
  attr {
    key: "_output_shapes"
    value {
      list {
        shape {
        }
      }
    }
  }
  attr {
    key: "keep_dims"
    value {
      b: false
    }
  }
}
node {
  name: "import/train/gradients/zeros_like"
  op: "ZerosLike"
  input: "import/cross_entropy/total/sparse_softmax_cross_entropy_loss/xentropy/xentropy:1"
  device: "/device:CPU:0"
  attr {
    key: "T"
    value {
      type: DT_FLOAT
    }
  }
  attr {
    key: "_output_shapes"
    value {
      list {
        shape {
          dim {
            size: -1
          }
          dim {
            size: 10
          }
        }
      }
    }
  }
}
node {
  name: "import/train/gradients/cross_entropy/total/sparse_softmax_cross_entropy_loss/xentropy/xentropy_grad/PreventGradient"
  op: "PreventGradient"
  input: "import/cross_entropy/total/sparse_softmax_cross_entropy_loss/xentropy/xentropy:1"
  device: "/device:CPU:0"
  attr {
    key: "T"
    value {
      type: DT_FLOAT
    }
  }
  attr {
    key: "_output_shapes"
    value {
      list {
        shape {
          dim {
            size: -1
          }
          dim {
            size: 10
          }
        }
      }
    }
  }
  attr {
    key: "message"
    value {
      s: "Currently there is no way to take the second derivative of sparse_softmax_cross_entropy_with_logits due to the fused implementation\'s interaction with tf.gradients()"
    }
  }
}
node {
  name: "import/train/gradients/cross_entropy/total/sparse_softmax_cross_entropy_loss/xentropy/xentropy_grad/ExpandDims/dim"
  op: "Const"
  device: "/device:CPU:0"
  attr {
    key: "_output_shapes"
    value {
      list {
        shape {
        }
      }
    }
  }
  attr {
    key: "dtype"
    value {
      type: DT_INT32
    }
  }
  attr {
    key: "value"
    value {
      tensor {
        dtype: DT_INT32
        tensor_shape {
        }
        int_val: -1
      }
    }
  }
}
node {
  name: "import/train/gradients/cross_entropy/total/sparse_softmax_cross_entropy_loss/xentropy/xentropy_grad/ExpandDims"
  op: "ExpandDims"
  input: "import/train/gradients/cross_entropy/total/sparse_softmax_cross_entropy_loss/Mul_grad/tuple/control_dependency"
  input: "import/train/gradients/cross_entropy/total/sparse_softmax_cross_entropy_loss/xentropy/xentropy_grad/ExpandDims/dim"
  device: "/device:CPU:0"
  attr {
    key: "T"
    value {
      type: DT_FLOAT
    }
  }
  attr {
    key: "Tdim"
    value {
      type: DT_INT32
    }
  }
  attr {
    key: "_output_shapes"
    value {
      list {
        shape {
          dim {
            size: -1
          }
          dim {
            size: 1
          }
        }
      }
    }
  }
}
node {
  name: "import/train/gradients/cross_entropy/total/sparse_softmax_cross_entropy_loss/xentropy/xentropy_grad/mul"
…
  input: "import/train/gradients/dropout/dropout/div_grad/Reshape"
  input: "^import/train/gradients/dropout/dropout/div_grad/tuple/group_deps"
  device: "/device:CPU:0"
  attr {
    key: "T"
    value {
      type: DT_FLOAT
    }
  }
  attr {
    key: "_class"
    value {
      list {
        s: "loc:@import/train/gradients/dropout/dropout/div_grad/Reshape"
      }
    }
  }
  attr {
    key: "_output_shapes"
    value {
      list {
        shape {
          dim {
            size: -1
          }
          dim {
            size: 500
          }
        }
      }
    }
  }
}
node {
  name: "import/train/gradients/dropout/dropout/div_grad/tuple/control_dependency_1"
  op: "Identity"
  input: "import/train/gradients/dropout/dropout/div_grad/Reshape_1"
  input: "^import/train/gradients/dropout/dropout/div_grad/tuple/group_deps"
  device: "/device:CPU:0"
  attr {
    key: "T"
    value {
      type: DT_FLOAT
    }
  }
  attr {
    key: "_class"
    value {
      list {
        s: "loc:@import/train/gradients/dropout/dropout/div_grad/Reshape_1"
      }
    }
  }
  attr {
    key: "_output_shapes"
    value {
      list {
        shape {
          unknown_rank: true
        }
      }
    }
  }
}
node {
  name: "import/train/gradients/layer1/activation_grad/ReluGrad"
  op: "ReluGrad"
  input: "import/train/gradients/dropout/dropout/div_grad/tuple/control_dependency"
  input: "import/layer1/activation"
  device: "/device:CPU:0"
  attr {
    key: "T"
    value {
      type: DT_FLOAT
    }
  }
  attr {
    key: "_output_shapes"
    value {
      list {
        shape {
          dim {
            size: -1
          }
          dim {
            size: 500
          }
        }
      }
    }
  }
}
node {
  name: "import/train/gradients/layer1/Wx_plus_b/add_grad/Shape"
  op: "Shape"
  input: "import/layer1/Wx_plus_b/MatMul"
  device: "/device:CPU:0"
  attr {
    key: "T"
    value {
      type: DT_FLOAT
    }
  }
  attr {
    key: "_output_shapes"
    value {
      list {
        shape {
          dim {
            size: 2
          }
        }
      }
    }
  }
  attr {
    key: "out_type"
    value {
      type: DT_INT32
    }
  }
}
node {
  name: "import/train/gradients/layer1/Wx_plus_b/add_grad/Shape_1"
  op: "Const"
  device: "/device:CPU:0"
  attr {
    key: "_output_shapes"
    value {
      list {
        shape {
          dim {
            size: 1
          }
        }
      }
    }
  }
  attr {
    key: "dtype"
    value {
      type: DT_INT32
    }
  }
  attr {
    key: "value"
    value {
      tensor {
        dtype: DT_INT32
        tensor_shape {
          dim {
            size: 1
          }
        }
        int_val: 500
      }
    }
  }
}
node {
  name: "import/train/gradients/layer1/Wx_plus_b/add_grad/BroadcastGradientArgs"
  op: "BroadcastGradientArgs"
  input: "import/train/gradients/layer1/Wx_plus_b/add_grad/Shape"
  input: "import/train/gradients/layer1/Wx_plus_b/add_grad/Shape_1"
  device: "/device:CPU:0"
  attr {
    key: "T"
    value {
      type: DT_INT32
    }
  }
  attr {
    key: "_output_shapes"
    value {
      list {
        shape {
          dim {
            size: -1
          }
        }
        shape {
          dim {
            size: -1
          }
        }
      }
    }
  }
}
node {
  name: "import/train/gradients/layer1/Wx_plus_b/add_grad/Sum"
  op: "Sum"
  input: "import/train/gradients/layer1/activation_grad/ReluGrad"
  input: "import/train/gradients/layer1/Wx_plus_b/add_grad/BroadcastGradientArgs"
  device: "/device:CPU:0"
  attr {
    key: "T"
    value {
      type: DT_FLOAT
    }
  }
  attr {
    key: "Tidx"
    value {
      type: DT_INT32
    }
  }
  attr {
    key: "_output_shapes"
    value {
      list {
        shape {
          unknown_rank: true
        }
      }
    }
  }
  attr {
    key: "keep_dims"
    value {
      b: false
    }
  }
}
node {
  name: "import/train/gradients/layer1/Wx_plus_b/add_grad/Reshape"
  op: "Reshape"
  input: "import/train/gradients/layer1/Wx_plus_b/add_grad/Sum"
  input: "import/train/gradients/layer1/Wx_plus_b/add_grad/Shape"
  device: "/device:CPU:0"
  attr {
    key: "T"
    value {
      type: DT_FLOAT
    }
  }
  attr {
    key: "Tshape"
    value {
      type: DT_INT32
    }
  }
  attr {
    key: "_output_shapes"
    value {
      list {
        shape {
          dim {
            size: -1
          }
          dim {
            size: 500
          }
        }
      }
    }
  }
}
node {
  name: "import/train/gradients/layer1/Wx_plus_b/add_grad/Sum_1"
  op: "Sum"
  input: "import/train/gradients/layer1/activation_grad/ReluGrad"
  input: "import/train/gradients/layer1/Wx_plus_b/add_grad/BroadcastGradientArgs:1"
  device: "/device:CPU:0"
  attr {
    key: "T"
    value {
      type: DT_FLOAT
    }
  }
  attr {
    key: "Tidx"
    value {
      type: DT_INT32
    }
  }
  attr {
    key: "_output_shapes"
    value {
      list {
        shape {
          unknown_rank: true
        }
      }
    }
  }
  attr {
    key: "keep_dims"
    value {
      b: false
    }
  }
}
node {
  name: "import/train/gradients/layer1/Wx_plus_b/add_grad/Reshape_1"
  op: "Reshape"
  input: "import/train/gradients/layer1/Wx_plus_b/add_grad/Sum_1"
  input: "import/train/gradients/layer1/Wx_plus_b/add_grad/Shape_1"
  device: "/device:CPU:0"
  attr {
    key: "T"
    value {
      type: DT_FLOAT
    }
  }
  attr {
    key: "Tshape"
    value {
      type: DT_INT32
    }
  }
  attr {
    key: "_output_shapes"
    value {
      list {
        shape {
          dim {
            size: 500
          }
        }
      }
    }
  }
}
node {
  name: "import/train/gradients/layer1/Wx_plus_b/add_grad/tuple/group_deps"
  op: "NoOp"
  input: "^import/train/gradients/layer1/Wx_plus_b/add_grad/Reshape"
  input: "^import/train/gradients/layer1/Wx_plus_b/add_grad/Reshape_1"
  device: "/device:CPU:0"
}
node {
  name: "import/train/gradients/layer1/Wx_plus_b/add_grad/tuple/control_dependency"
  op: "Identity"
  input: "import/train/gradients/layer1/Wx_plus_b/add_grad/Reshape"
  input: "^import/train/gradients/layer1/Wx_plus_b/add_grad/tuple/group_deps"
  device: "/device:CPU:0"
  attr {
    key: "T"
    value {
      type: DT_FLOAT
    }
  }
  attr {
    key: "_class"
    value {
      list {
        s: "loc:@import/train/gradients/layer1/Wx_plus_b/add_grad/Reshape"
      }
    }
  }
  attr {
    key: "_output_shapes"
    value {
      list {
        shape {
          dim {
            size: -1
          }
          dim {
            size: 500
          }
        }
      }
    }
  }
}
node {
  name: "import/train/gradients/layer1/Wx_plus_b/add_grad/tuple/control_dependency_1"
  op: "Identity"
  input: "import/train/gradients/layer1/Wx_plus_b/add_grad/Reshape_1"
  input: "^import/train/gradients/layer1/Wx_plus_b/add_grad/tuple/group_deps"
  device: "/device:CPU:0"
  attr {
    key: "T"
    value {
      type: DT_FLOAT
    }
  }
  attr {
    key: "_class"
    value {
      list {
        s: "loc:@import/train/gradients/layer1/Wx_plus_b/add_grad/Reshape_1"
      }
    }
  }
  attr {
    key: "_output_shapes"
    value {
      list {
        shape {
          dim {
            size: 500
          }
        }
      }
    }
  }
}
node {
  name: "import/train/gradients/layer1/Wx_plus_b/MatMul_grad/MatMul"
  op: "MatMul"
  input: "import/train/gradients/layer1/Wx_plus_b/add_grad/tuple/control_dependency"
  input: "import/layer1/weights/Variable/read"
  device: "/device:CPU:0"
  attr {
    key: "T"
    value {
      type: DT_FLOAT
    }
  }
  attr {
    key: "_output_shapes"
    value {
      list {
        shape {
          dim {
            size: -1
          }
          dim {
            size: 784
          }
        }
      }
    }
  }
  attr {
    key: "transpose_a"
    value {
      b: false
    }
  }
  attr {
    key: "transpose_b"
    value {
      b: true
    }
  }
}
node {
  name: "import/train/gradients/layer1/Wx_plus_b/MatMul_grad/MatMul_1"
  op: "MatMul"
  input: "import/input/x-input"
  input: "import/train/gradients/layer1/Wx_plus_b/add_grad/tuple/control_dependency"
  device: "/device:CPU:0"
  attr {
    key: "T"
    value {
      type: DT_FLOAT
    }
  }
  attr {
    key: "_output_shapes"
    value {
      list {
        shape {
          dim {
            size: 784
          }
          dim {
            size: 500
          }
        }
      }
    }
  }
  attr {
    key: "transpose_a"
    value {
      b: true
    }
  }
  attr {
    key: "transpose_b"
    value {
      b: false
    }
  }
}
node {
  name: "import/train/gradients/layer1/Wx_plus_b/MatMul_grad/tuple/group_deps"
  op: "NoOp"
  input: "^import/train/gradients/layer1/Wx_plus_b/MatMul_grad/MatMul"
  input: "^import/train/gradients/layer1/Wx_plus_b/MatMul_grad/MatMul_1"
  device: "/device:CPU:0"
}
node {
  name: "import/train/gradients/layer1/Wx_plus_b/MatMul_grad/tuple/control_dependency"
  op: "Identity"
  input: "import/train/gradients/layer1/Wx_plus_b/MatMul_grad/MatMul"
  input: "^import/train/gradients/layer1/Wx_plus_b/MatMul_grad/tuple/group_deps"
  device: "/device:CPU:0"
  attr {
    key: "T"
    value {
      type: DT_FLOAT
    }
  }
  attr {
    key: "_class"
    value {
      list {
        s: "loc:@import/train/gradients/layer1/Wx_plus_b/MatMul_grad/MatMul"
      }
    }
  }
  attr {
    key: "_output_shapes"
    value {
      list {
        shape {
          dim {
            size: -1
          }
          dim {
            size: 784
          }
        }
      }
    }
  }
}
node {
  name: "import/train/gradients/layer1/Wx_plus_b/MatMul_grad/tuple/control_dependency_1"
  op: "Identity"
  input: "import/train/gradients/layer1/Wx_plus_b/MatMul_grad/MatMul_1"
  input: "^import/train/gradients/layer1/Wx_plus_b/MatMul_grad/tuple/group_deps"
  device: "/device:CPU:0"
  attr {
    key: "T"
    value {
      type: DT_FLOAT
    }
  }
  attr {
    key: "_class"
    value {
      list {
        s: "loc:@import/train/gradients/layer1/Wx_plus_b/MatMul_grad/MatMul_1"
      }
    }
  }
  attr {
    key: "_output_shapes"
    value {
      list {
        shape {
          dim {
            size: 784
          }
          dim {
            size: 500
          }
        }
      }
    }
  }
}
node {
  name: "import/train/beta1_power/initial_value"
  op: "Const"
  device: "/device:CPU:0"
  attr {
    key: "_class"
    value {
      list {
        s: "loc:@import/layer1/biases/Variable"
      }
    }
  }
  attr {
    key: "_output_shapes"
    value {
      list {
        shape {
        }
      }
    }
  }
  attr {
    key: "dtype"
    value {
      type: DT_FLOAT
    }
  }
  attr {
    key: "value"
    value {
      tensor {
        dtype: DT_FLOAT
        tensor_shape {
        }
        float_val: 0.8999999761581421
      }
    }
  }
}
node {
  name: "import/train/beta1_power"
  op: "VariableV2"
  device: "/device:CPU:0"
  attr {
    key: "_class"
    value {
      list {
        s: "loc:@import/layer1/biases/Variable"
      }
    }
  }
  attr {
    key: "_output_shapes"
    value {
      list {
        shape {
        }
      }
    }
  }
  attr {
    key: "container"
    value {
      s: ""
    }
  }
  attr {
    key: "dtype"
    value {
      type: DT_FLOAT
    }
  }
  attr {
    key: "shape"
    value {
      shape {
      }
    }
  }
  attr {
    key: "shared_name"
    value {
      s: ""
    }
  }
}
node {
  name: "import/train/beta1_power/Assign"
  op: "Assign"
  input: "import/train/beta1_power"
  input: "import/train/beta1_power/initial_value"
  device: "/device:CPU:0"
  attr {
    key: "T"
    value {
      type: DT_FLOAT
    }
  }
  attr {
    key: "_class"
    value {
      list {
        s: "loc:@import/layer1/biases/Variable"
      }
    }
  }
  attr {
    key: "_output_shapes"
    value {
      list {
        shape {
        }
      }
    }
  }
  attr {
    key: "use_locking"
    value {
      b: true
    }
  }
  attr {
    key: "validate_shape"
    value {
      b: true
    }
  }
}
node {
  name: "import/train/beta1_power/read"
  op: "Identity"
  input: "import/train/beta1_power"
  device: "/device:CPU:0"
  attr {
    key: "T"
    value {
      type: DT_FLOAT
    }
  }
  attr {
    key: "_class"
    value {
      list {
        s: "loc:@import/layer1/biases/Variable"
      }
    }
  }
  attr {
    key: "_output_shapes"
    value {
      list {
        shape {
        }
      }
    }
  }
}
node {
  name: "import/train/beta2_power/initial_value"
  op: "Const"
  device: "/device:CPU:0"
  attr {
    key: "_class"
    value {
      list {
        s: "loc:@import/layer1/biases/Variable"
      }
    }
  }
  attr {
    key: "_output_shapes"
    value {
      list {
        shape {
        }
      }
    }
  }
  attr {
    key: "dtype"
    value {
      type: DT_FLOAT
    }
  }
  attr {
    key: "value"
    value {
      tensor {
        dtype: DT_FLOAT
        tensor_shape {
        }
        float_val: 0.9990000128746033
      }
    }
  }
}
node {
  name: "import/train/beta2_power"
  op: "VariableV2"
  device: "/device:CPU:0"
  attr {
    key: "_class"
    value {
      list {
        s: "loc:@import/layer1/biases/Variable"
      }
    }
  }
  attr {
    key: "_output_shapes"
    value {
      list {
        shape {
        }
      }
    }
  }
  attr {
    key: "container"
    value {
      s: ""
    }
  }
  attr {
    key: "dtype"
    value {
      type: DT_FLOAT
    }
  }
  attr {
    key: "shape"
    value {
      shape {
      }
    }
  }
  attr {
    key: "shared_name"
    value {
      s: ""
    }
  }
}
node {
  name: "import/train/beta2_power/Assign"
  op: "Assign"
  input: "import/train/beta2_power"
  input: "import/train/beta2_power/initial_value"
  device: "/device:CPU:0"
  attr {
    key: "T"
    value {
      type: DT_FLOAT
    }
  }
  attr {
    key: "_class"
    value {
      list {
        s: "loc:@import/layer1/biases/Variable"
      }
    }
  }
  attr {
    key: "_output_shapes"
    value {
      list {
        shape {
        }
      }
    }
  }
  attr {
    key: "use_locking"
    value {
      b: true
    }
  }
  attr {
    key: "validate_shape"
    value {
      b: true
    }
  }
}
node {
  name: "import/train/beta2_power/read"
  op: "Identity"
  input: "import/train/beta2_power"
  device: "/device:CPU:0"
  attr {
    key: "T"
    value {
      type: DT_FLOAT
    }
  }
  attr {
    key: "_class"
    value {
      list {
        s: "loc:@import/layer1/biases/Variable"
      }
    }
  }
  attr {
    key: "_output_shapes"
    value {
      list {
        shape {
        }
      }
    }
  }
}
node {
  name: "import/layer1/weights/Variable/Adam/Initializer/zeros"
  op: "Const"
  device: "/device:CPU:0"
  attr {
    key: "_class"
    value {
      list {
        s: "loc:@import/layer1/weights/Variable"
      }
    }
  }
  attr {
    key: "_output_shapes"
    value {
      list {
        shape {
          dim {
            size: 784
          }
          dim {
            size: 500
          }
        }
      }
    }
  }
  attr {
    key: "dtype"
    value {
      type: DT_FLOAT
    }
  }
  attr {
    key: "value"
    value {
      tensor {
        dtype: DT_FLOAT
        tensor_shape {
          dim {
            size: 784
          }
          dim {
            size: 500
          }
        }
        float_val: 0.0
      }
    }
  }
}
node {
  name: "import/layer1/weights/Variable/Adam"
  op: "VariableV2"
  device: "/device:CPU:0"
  attr {
    key: "_class"
    value {
      list {
        s: "loc:@import/layer1/weights/Variable"
      }
    }
  }
  attr {
    key: "_output_shapes"
    value {
      list {
        shape {
          dim {
            size: 784
          }
          dim {
            size: 500
          }
        }
      }
    }
  }
  attr {
    key: "container"
    value {
      s: ""
    }
  }
  attr {
    key: "dtype"
    value {
      type: DT_FLOAT
    }
  }
  attr {
    key: "shape"
    value {
      shape {
        dim {
          size: 784
        }
        dim {
          size: 500
        }
      }
    }
  }
  attr {
    key: "shared_name"
    value {
      s: ""
    }
  }
}
node {
  name: "import/layer1/weights/Variable/Adam/Assign"
  op: "Assign"
  input: "import/layer1/weights/Variable/Adam"
  input: "import/layer1/weights/Variable/Adam/Initializer/zeros"
  device: "/device:CPU:0"
  attr {
    key: "T"
    value {
      type: DT_FLOAT
    }
  }
  attr {
    key: "_class"
    value {
      list {
        s: "loc:@import/layer1/weights/Variable"
      }
    }
  }
  attr {
    key: "_output_shapes"
    value {
      list {
        shape {
          dim {
            size: 784
          }
          dim {
            size: 500
          }
        }
      }
    }
  }
  attr {
    key: "use_locking"
    value {
      b: true
    }
  }
  attr {
    key: "validate_shape"
    value {
      b: true
    }
  }
}
node {
  name: "import/layer1/weights/Variable/Adam/read"
  op: "Identity"
  input: "import/layer1/weights/Variable/Adam"
  device: "/device:CPU:0"
  attr {
    key: "T"
    value {
      type: DT_FLOAT
    }
  }
  attr {
    key: "_class"
    value {
      list {
        s: "loc:@import/layer1/weights/Variable"
      }
    }
  }
  attr {
    key: "_output_shapes"
    value {
      list {
        shape {
          dim {
            size: 784
          }
          dim {
            size: 500
          }
        }
      }
    }
  }
}
node {
  name: "import/layer1/weights/Variable/Adam_1/Initializer/zeros"
  op: "Const"
  device: "/device:CPU:0"
  attr {
    key: "_class"
    value {
      list {
        s: "loc:@import/layer1/weights/Variable"
      }
    }
  }
  attr {
    key: "_output_shapes"
    value {
      list {
        shape {
          dim {
            size: 784
          }
          dim {
            size: 500
          }
        }
      }
    }
  }
  attr {
    key: "dtype"
    value {
      type: DT_FLOAT
    }
  }
  attr {
    key: "value"
    value {
      tensor {
        dtype: DT_FLOAT
        tensor_shape {
          dim {
            size: 784
          }
          dim {
            size: 500
          }
        }
        float_val: 0.0
      }
    }
  }
}
node {
  name: "import/layer1/weights/Variable/Adam_1"
  op: "VariableV2"
  device: "/device:CPU:0"
  attr {
    key: "_class"
    value {
      list {
        s: "loc:@import/layer1/weights/Variable"
      }
    }
  }
  attr {
    key: "_output_shapes"
    value {
      list {
        shape {
          dim {
            size: 784
          }
          dim {
            size: 500
          }
        }
      }
    }
  }
  attr {
    key: "container"
    value {
      s: ""
    }
  }
  attr {
    key: "dtype"
    value {
      type: DT_FLOAT
    }
  }
  attr {
    key: "shape"
    value {
      shape {
        dim {
          size: 784
        }
        dim {
          size: 500
        }
      }
    }
  }
  attr {
    key: "shared_name"
    value {
      s: ""
    }
  }
}
node {
  name: "import/layer1/weights/Variable/Adam_1/Assign"
  op: "Assign"
  input: "import/layer1/weights/Variable/Adam_1"
  input: "import/layer1/weights/Variable/Adam_1/Initializer/zeros"
  device: "/device:CPU:0"
  attr {
    key: "T"
    value {
      type: DT_FLOAT
    }
  }
  attr {
    key: "_class"
    value {
      list {
        s: "loc:@import/layer1/weights/Variable"
      }
    }
  }
  attr {
    key: "_output_shapes"
    value {
      list {
        shape {
          dim {
            size: 784
          }
          dim {
            size: 500
          }
        }
      }
    }
  }
  attr {
    key: "use_locking"
    value {
      b: true
    }
  }
  attr {
    key: "validate_shape"
    value {
      b: true
    }
  }
}
node {
  name: "import/layer1/weights/Variable/Adam_1/read"
  op: "Identity"
  input: "import/layer1/weights/Variable/Adam_1"
  device: "/device:CPU:0"
  attr {
    key: "T"
    value {
      type: DT_FLOAT
    }
  }
  attr {
    key: "_class"
    value {
      list {
        s: "loc:@import/layer1/weights/Variable"
      }
    }
  }
  attr {
    key: "_output_shapes"
    value {
      list {
        shape {
          dim {
            size: 784
          }
          dim {
            size: 500
          }
        }
      }
    }
  }
}
node {
  name: "import/layer1/biases/Variable/Adam/Initializer/zeros"
  op: "Const"
  device: "/device:CPU:0"
  attr {
    key: "_class"
    value {
      list {
        s: "loc:@import/layer1/biases/Variable"
      }
    }
  }
  attr {
    key: "_output_shapes"
    value {
      list {
        shape {
          dim {
            size: 500
          }
        }
      }
    }
  }
  attr {
    key: "dtype"
    value {
      type: DT_FLOAT
    }
  }
  attr {
    key: "value"
    value {
      tensor {
        dtype: DT_FLOAT
        tensor_shape {
          dim {
            size: 500
          }
        }
        float_val: 0.0
      }
    }
  }
}
node {
  name: "import/layer1/biases/Variable/Adam"
  op: "VariableV2"
  device: "/device:CPU:0"
  attr {
    key: "_class"
    value {
      list {
        s: "loc:@import/layer1/biases/Variable"
      }
    }
  }
  attr {
    key: "_output_shapes"
    value {
      list {
        shape {
          dim {
            size: 500
          }
        }
      }
    }
  }
  attr {
    key: "container"
    value {
      s: ""
    }
  }
  attr {
    key: "dtype"
    value {
      type: DT_FLOAT
    }
  }
  attr {
    key: "shape"
    value {
      shape {
        dim {
          size: 500
        }
      }
    }
  }
  attr {
    key: "shared_name"
    value {
      s: ""
    }
  }
}
node {
  name: "import/layer1/biases/Variable/Adam/Assign"
  op: "Assign"
  input: "import/layer1/biases/Variable/Adam"
  input: "import/layer1/biases/Variable/Adam/Initializer/zeros"
  device: "/device:CPU:0"
  attr {
    key: "T"
    value {
      type: DT_FLOAT
    }
  }
  attr {
    key: "_class"
    value {
      list {
        s: "loc:@import/layer1/biases/Variable"
      }
    }
  }
  attr {
    key: "_output_shapes"
    value {
      list {
        shape {
          dim {
            size: 500
          }
        }
      }
    }
  }
  attr {
    key: "use_locking"
    value {
      b: true
    }
  }
  attr {
    key: "validate_shape"
    value {
      b: true
    }
  }
}
node {
  name: "import/layer1/biases/Variable/Adam/read"
  op: "Identity"
  input: "import/layer1/biases/Variable/Adam"
  device: "/device:CPU:0"
  attr {
    key: "T"
    value {
      type: DT_FLOAT
    }
  }
  attr {
    key: "_class"
    value {
      list {
        s: "loc:@import/layer1/biases/Variable"
      }
    }
  }
  attr {
    key: "_output_shapes"
    value {
      list {
        shape {
          dim {
            size: 500
          }
        }
      }
    }
  }
}
node {
  name: "import/layer1/biases/Variable/Adam_1/Initializer/zeros"
  op: "Const"
  device: "/device:CPU:0"
  attr {
    key: "_class"
    value {
      list {
        s: "loc:@import/layer1/biases/Variable"
      }
    }
  }
  attr {
    key: "_output_shapes"
    value {
      list {
        shape {
          dim {
            size: 500
          }
        }
      }
    }
  }
  attr {
    key: "dtype"
    value {
      type: DT_FLOAT
    }
  }
  attr {
    key: "value"
    value {
      tensor {
        dtype: DT_FLOAT
        tensor_shape {
          dim {
            size: 500
          }
        }
        float_val: 0.0
      }
    }
  }
}
node {
  name: "import/layer1/biases/Variable/Adam_1"
  op: "VariableV2"
  device: "/device:CPU:0"
  attr {
    key: "_class"
    value {
      list {
        s: "loc:@import/layer1/biases/Variable"
      }
    }
  }
  attr {
    key: "_output_shapes"
    value {
      list {
        shape {
          dim {
            size: 500
          }
        }
      }
    }
  }
  attr {
    key: "container"
    value {
      s: ""
    }
  }
  attr {
    key: "dtype"
    value {
      type: DT_FLOAT
    }
  }
  attr {
    key: "shape"
    value {
      shape {
        dim {
          size: 500
        }
      }
    }
  }
  attr {
    key: "shared_name"
    value {
      s: ""
    }
  }
}
node {
  name: "import/layer1/biases/Variable/Adam_1/Assign"
  op: "Assign"
  input: "import/layer1/biases/Variable/Adam_1"
  input: "import/layer1/biases/Variable/Adam_1/Initializer/zeros"
  device: "/device:CPU:0"
  attr {
    key: "T"
    value {
      type: DT_FLOAT
    }
  }
  attr {
    key: "_class"
    value {
      list {
        s: "loc:@import/layer1/biases/Variable"
      }
    }
  }
  attr {
    key: "_output_shapes"
    value {
      list {
        shape {
          dim {
            size: 500
          }
        }
      }
    }
  }
  attr {
    key: "use_locking"
    value {
      b: true
    }
  }
  attr {
    key: "validate_shape"
    value {
      b: true
    }
  }
}
node {
  name: "import/layer1/biases/Variable/Adam_1/read"
  op: "Identity"
  input: "import/layer1/biases/Variable/Adam_1"
  device: "/device:CPU:0"
  attr {
    key: "T"
    value {
      type: DT_FLOAT
    }
  }
  attr {
    key: "_class"
    value {
      list {
        s: "loc:@import/layer1/biases/Variable"
      }
    }
  }
  attr {
    key: "_output_shapes"
    value {
      list {
        shape {
          dim {
            size: 500
          }
        }
      }
    }
  }
}
node {
  name: "import/layer2/weights/Variable/Adam/Initializer/zeros"
  op: "Const"
  device: "/device:CPU:0"
  attr {
    key: "_class"
    value {
      list {
        s: "loc:@import/layer2/weights/Variable"
      }
    }
  }
  attr {
    key: "_output_shapes"
    value {
      list {
        shape {
          dim {
            size: 500
          }
          dim {
            size: 10
          }
        }
      }
    }
  }
  attr {
    key: "dtype"
    value {
      type: DT_FLOAT
    }
  }
  attr {
    key: "value"
    value {
      tensor {
        dtype: DT_FLOAT
        tensor_shape {
          dim {
            size: 500
          }
          dim {
            size: 10
          }
        }
        float_val: 0.0
      }
    }
  }
}
node {
  name: "import/layer2/weights/Variable/Adam"
  op: "VariableV2"
  device: "/device:CPU:0"
  attr {
    key: "_class"
    value {
      list {
        s: "loc:@import/layer2/weights/Variable"
      }
    }
  }
  attr {
    key: "_output_shapes"
    value {
      list {
        shape {
          dim {
            size: 500
          }
          dim {
            size: 10
          }
        }
      }
    }
  }
  attr {
    key: "container"
    value {
      s: ""
    }
  }
  attr {
    key: "dtype"
    value {
      type: DT_FLOAT
    }
  }
  attr {
    key: "shape"
    value {
      shape {
        dim {
          size: 500
        }
        dim {
          size: 10
        }
      }
    }
  }
  attr {
    key: "shared_name"
    value {
      s: ""
    }
  }
}
node {
  name: "import/layer2/weights/Variable/Adam/Assign"
  op: "Assign"
  input: "import/layer2/weights/Variable/Adam"
  input: "import/layer2/weights/Variable/Adam/Initializer/zeros"
  device: "/device:CPU:0"
  attr {
    key: "T"
    value {
      type: DT_FLOAT
    }
  }
  attr {
    key: "_class"
    value {
      list {
        s: "loc:@import/layer2/weights/Variable"
      }
    }
  }
  attr {
    key: "_output_shapes"
    value {
      list {
        shape {
          dim {
            size: 500
          }
          dim {
            size: 10
          }
        }
      }
    }
  }
  attr {
    key: "use_locking"
    value {
      b: true
    }
  }
  attr {
    key: "validate_shape"
    value {
      b: true
    }
  }
}
node {
  name: "import/layer2/weights/Variable/Adam/read"
  op: "Identity"
  input: "import/layer2/weights/Variable/Adam"
  device: "/device:CPU:0"
  attr {
    key: "T"
    value {
      type: DT_FLOAT
    }
  }
  attr {
    key: "_class"
    value {
      list {
        s: "loc:@import/layer2/weights/Variable"
      }
    }
  }
  attr {
    key: "_output_shapes"
    value {
      list {
        shape {
          dim {
            size: 500
          }
          dim {
            size: 10
          }
        }
      }
    }
  }
}
node {
  name: "import/layer2/weights/Variable/Adam_1/Initializer/zeros"
  op: "Const"
  device: "/device:CPU:0"
  attr {
    key: "_class"
    value {
      list {
        s: "loc:@import/layer2/weights/Variable"
      }
    }
  }
  attr {
    key: "_output_shapes"
    value {
      list {
        shape {
          dim {
            size: 500
          }
          dim {
            size: 10
          }
        }
      }
    }
  }
  attr {
    key: "dtype"
    value {
      type: DT_FLOAT
    }
  }
  attr {
    key: "value"
    value {
      tensor {
        dtype: DT_FLOAT
        tensor_shape {
          dim {
            size: 500
          }
          dim {
            size: 10
          }
        }
        float_val: 0.0
      }
    }
  }
}
node {
  name: "import/layer2/weights/Variable/Adam_1"
  op: "VariableV2"
  device: "/device:CPU:0"
  attr {
    key: "_class"
    value {
      list {
        s: "loc:@import/layer2/weights/Variable"
      }
    }
  }
  attr {
    key: "_output_shapes"
    value {
      list {
        shape {
          dim {
            size: 500
          }
          dim {
            size: 10
          }
        }
      }
    }
  }
  attr {
    key: "container"
    value {
      s: ""
    }
  }
  attr {
    key: "dtype"
    value {
      type: DT_FLOAT
    }
  }
  attr {
    key: "shape"
    value {
      shape {
        dim {
          size: 500
        }
        dim {
          size: 10
        }
      }
    }
  }
  attr {
    key: "shared_name"
    value {
      s: ""
    }
  }
}
node {
  name: "import/layer2/weights/Variable/Adam_1/Assign"
  op: "Assign"
  input: "import/layer2/weights/Variable/Adam_1"
  input: "import/layer2/weights/Variable/Adam_1/Initializer/zeros"
  device: "/device:CPU:0"
  attr {
    key: "T"
    value {
      type: DT_FLOAT
    }
  }
  attr {
    key: "_class"
    value {
      list {
        s: "loc:@import/layer2/weights/Variable"
      }
    }
  }
  attr {
    key: "_output_shapes"
    value {
      list {
        shape {
          dim {
            size: 500
          }
          dim {
            size: 10
          }
        }
      }
    }
  }
  attr {
    key: "use_locking"
    value {
      b: true
    }
  }
  attr {
    key: "validate_shape"
    value {
      b: true
    }
  }
}
node {
  name: "import/layer2/weights/Variable/Adam_1/read"
  op: "Identity"
  input: "import/layer2/weights/Variable/Adam_1"
  device: "/device:CPU:0"
  attr {
    key: "T"
    value {
      type: DT_FLOAT
    }
  }
  attr {
    key: "_class"
    value {
      list {
        s: "loc:@import/layer2/weights/Variable"
      }
    }
  }
  attr {
    key: "_output_shapes"
    value {
      list {
        shape {
          dim {
            size: 500
          }
          dim {
            size: 10
          }
        }
      }
    }
  }
}
node {
  name: "import/layer2/biases/Variable/Adam/Initializer/zeros"
  op: "Const"
  device: "/device:CPU:0"
  attr {
    key: "_class"
    value {
      list {
        s: "loc:@import/layer2/biases/Variable"
      }
    }
  }
  attr {
    key: "_output_shapes"
    value {
      list {
        shape {
          dim {
            size: 10
          }
        }
      }
    }
  }
  attr {
    key: "dtype"
    value {
      type: DT_FLOAT
    }
  }
  attr {
    key: "value"
    value {
      tensor {
        dtype: DT_FLOAT
        tensor_shape {
          dim {
            size: 10
          }
        }
        float_val: 0.0
      }
    }
  }
}
node {
  name: "import/layer2/biases/Variable/Adam"
  op: "VariableV2"
  device: "/device:CPU:0"
  attr {
    key: "_class"
    value {
      list {
        s: "loc:@import/layer2/biases/Variable"
      }
    }
  }
  attr {
    key: "_output_shapes"
    value {
      list {
        shape {
          dim {
            size: 10
          }
        }
      }
    }
  }
  attr {
    key: "container"
    value {
      s: ""
    }
  }
  attr {
    key: "dtype"
    value {
      type: DT_FLOAT
    }
  }
  attr {
    key: "shape"
    value {
      shape {
        dim {
          size: 10
        }
      }
    }
  }
  attr {
    key: "shared_name"
    value {
      s: ""
    }
  }
}
node {
  name: "import/layer2/biases/Variable/Adam/Assign"
  op: "Assign"
  input: "import/layer2/biases/Variable/Adam"
  input: "import/layer2/biases/Variable/Adam/Initializer/zeros"
  device: "/device:CPU:0"
  attr {
    key: "T"
    value {
      type: DT_FLOAT
    }
  }
  attr {
    key: "_class"
    value {
      list {
        s: "loc:@import/layer2/biases/Variable"
      }
    }
  }
  attr {
    key: "_output_shapes"
    value {
      list {
        shape {
          dim {
            size: 10
          }
        }
      }
    }
  }
  attr {
    key: "use_locking"
    value {
      b: true
    }
  }
  attr {
    key: "validate_shape"
    value {
      b: true
    }
  }
}
node {
  name: "import/layer2/biases/Variable/Adam/read"
  op: "Identity"
  input: "import/layer2/biases/Variable/Adam"
  device: "/device:CPU:0"
  attr {
    key: "T"
    value {
      type: DT_FLOAT
    }
  }
  attr {
    key: "_class"
    value {
      list {
        s: "loc:@import/layer2/biases/Variable"
      }
    }
  }
  attr {
    key: "_output_shapes"
    value {
      list {
        shape {
          dim {
            size: 10
          }
        }
      }
    }
  }
}
node {
  name: "import/layer2/biases/Variable/Adam_1/Initializer/zeros"
  op: "Const"
  device: "/device:CPU:0"
  attr {
    key: "_class"
    value {
      list {
        s: "loc:@import/layer2/biases/Variable"
      }
    }
  }
  attr {
    key: "_output_shapes"
    value {
      list {
        shape {
          dim {
            size: 10
          }
        }
      }
    }
  }
  attr {
    key: "dtype"
    value {
      type: DT_FLOAT
    }
  }
  attr {
    key: "value"
    value {
      tensor {
        dtype: DT_FLOAT
        tensor_shape {
          dim {
            size: 10
          }
        }
        float_val: 0.0
      }
    }
  }
}
node {
  name: "import/layer2/biases/Variable/Adam_1"
  op: "VariableV2"
  device: "/device:CPU:0"
  attr {
    key: "_class"
    value {
      list {
        s: "loc:@import/layer2/biases/Variable"
      }
    }
  }
  attr {
    key: "_output_shapes"
    value {
      list {
        shape {
          dim {
            size: 10
          }
        }
      }
    }
  }
  attr {
    key: "container"
    value {
      s: ""
    }
  }
  attr {
    key: "dtype"
    value {
      type: DT_FLOAT
    }
  }
  attr {
    key: "shape"
    value {
      shape {
        dim {
          size: 10
        }
      }
    }
  }
  attr {
    key: "shared_name"
    value {
      s: ""
    }
  }
}
node {
  name: "import/layer2/biases/Variable/Adam_1/Assign"
  op: "Assign"
  input: "import/layer2/biases/Variable/Adam_1"
  input: "import/layer2/biases/Variable/Adam_1/Initializer/zeros"
  device: "/device:CPU:0"
  attr {
    key: "T"
    value {
      type: DT_FLOAT
    }
  }
  attr {
    key: "_class"
    value {
      list {
        s: "loc:@import/layer2/biases/Variable"
      }
    }
  }
  attr {
    key: "_output_shapes"
    value {
      list {
        shape {
          dim {
            size: 10
          }
        }
      }
    }
  }
  attr {
    key: "use_locking"
    value {
      b: true
    }
  }
  attr {
    key: "validate_shape"
    value {
      b: true
    }
  }
}
node {
  name: "import/layer2/biases/Variable/Adam_1/read"
  op: "Identity"
  input: "import/layer2/biases/Variable/Adam_1"
  device: "/device:CPU:0"
  attr {
    key: "T"
    value {
      type: DT_FLOAT
    }
  }
  attr {
    key: "_class"
    value {
      list {
        s: "loc:@import/layer2/biases/Variable"
      }
    }
  }
  attr {
    key: "_output_shapes"
    value {
      list {
        shape {
          dim {
            size: 10
          }
        }
      }
    }
  }
}
node {
  name: "import/train/Adam/learning_rate"
  op: "Const"
  device: "/device:CPU:0"
  attr {
    key: "_output_shapes"
    value {
      list {
        shape {
        }
      }
    }
  }
  attr {
    key: "dtype"
    value {
      type: DT_FLOAT
    }
  }
  attr {
    key: "value"
    value {
      tensor {
        dtype: DT_FLOAT
        tensor_shape {
        }
        float_val: 0.0010000000474974513
      }
    }
  }
}
node {
  name: "import/train/Adam/beta1"
  op: "Const"
  device: "/device:CPU:0"
  attr {
    key: "_output_shapes"
    value {
      list {
        shape {
        }
      }
    }
  }
  attr {
    key: "dtype"
    value {
      type: DT_FLOAT
    }
  }
  attr {
    key: "value"
    value {
      tensor {
        dtype: DT_FLOAT
        tensor_shape {
        }
        float_val: 0.8999999761581421
      }
    }
  }
}
node {
  name: "import/train/Adam/beta2"
  op: "Const"
  device: "/device:CPU:0"
  attr {
    key: "_output_shapes"
    value {
      list {
        shape {
        }
      }
    }
  }
  attr {
    key: "dtype"
    value {
      type: DT_FLOAT
    }
  }
  attr {
    key: "value"
    value {
      tensor {
        dtype: DT_FLOAT
        tensor_shape {
        }
        float_val: 0.9990000128746033
      }
    }
  }
}
node {
  name: "import/train/Adam/epsilon"
  op: "Const"
  device: "/device:CPU:0"
  attr {
    key: "_output_shapes"
    value {
      list {
        shape {
        }
      }
    }
  }
  attr {
    key: "dtype"
    value {
      type: DT_FLOAT
    }
  }
  attr {
    key: "value"
    value {
      tensor {
        dtype: DT_FLOAT
        tensor_shape {
        }
        float_val: 9.99999993922529e-09
      }
    }
  }
}
node {
  name: "import/train/Adam/update_layer1/weights/Variable/ApplyAdam"
  op: "ApplyAdam"
  input: "import/layer1/weights/Variable"
  input: "import/layer1/weights/Variable/Adam"
  input: "import/layer1/weights/Variable/Adam_1"
  input: "import/train/beta1_power/read"
  input: "import/train/beta2_power/read"
  input: "import/train/Adam/learning_rate"
  input: "import/train/Adam/beta1"
  input: "import/train/Adam/beta2"
  input: "import/train/Adam/epsilon"
  input: "import/train/gradients/layer1/Wx_plus_b/MatMul_grad/tuple/control_dependency_1"
  device: "/device:CPU:0"
  attr {
    key: "T"
    value {
      type: DT_FLOAT
    }
  }
  attr {
    key: "_class"
    value {
      list {
        s: "loc:@import/layer1/weights/Variable"
      }
    }
  }
  attr {
    key: "_output_shapes"
    value {
      list {
        shape {
          dim {
            size: 784
          }
          dim {
            size: 500
          }
        }
      }
    }
  }
  attr {
    key: "use_locking"
    value {
      b: false
    }
  }
  attr {
    key: "use_nesterov"
    value {
      b: false
    }
  }
}
node {
  name: "import/train/Adam/update_layer1/biases/Variable/ApplyAdam"
  op: "ApplyAdam"
  input: "import/layer1/biases/Variable"
  input: "import/layer1/biases/Variable/Adam"
  input: "import/layer1/biases/Variable/Adam_1"
  input: "import/train/beta1_power/read"
  input: "import/train/beta2_power/read"
  input: "import/train/Adam/learning_rate"
  input: "import/train/Adam/beta1"
  input: "import/train/Adam/beta2"
  input: "import/train/Adam/epsilon"
  input: "import/train/gradients/layer1/Wx_plus_b/add_grad/tuple/control_dependency_1"
  device: "/device:CPU:0"
  attr {
    key: "T"
    value {
      type: DT_FLOAT
    }
  }
  attr {
    key: "_class"
    value {
      list {
        s: "loc:@import/layer1/biases/Variable"
      }
    }
  }
  attr {
    key: "_output_shapes"
    value {
      list {
        shape {
          dim {
            size: 500
          }
        }
      }
    }
  }
  attr {
    key: "use_locking"
    value {
      b: false
    }
  }
  attr {
    key: "use_nesterov"
    value {
      b: false
    }
  }
}
node {
  name: "import/train/Adam/update_layer2/weights/Variable/ApplyAdam"
  op: "ApplyAdam"
  input: "import/layer2/weights/Variable"
  input: "import/layer2/weights/Variable/Adam"
  input: "import/layer2/weights/Variable/Adam_1"
  input: "import/train/beta1_power/read"
  input: "import/train/beta2_power/read"
  input: "import/train/Adam/learning_rate"
  input: "import/train/Adam/beta1"
  input: "import/train/Adam/beta2"
  input: "import/train/Adam/epsilon"
  input: "import/train/gradients/layer2/Wx_plus_b/MatMul_grad/tuple/control_dependency_1"
  device: "/device:CPU:0"
  attr {
    key: "T"
    value {
      type: DT_FLOAT
    }
  }
  attr {
    key: "_class"
    value {
      list {
        s: "loc:@import/layer2/weights/Variable"
      }
    }
  }
  attr {
    key: "_output_shapes"
    value {
      list {
        shape {
          dim {
            size: 500
          }
          dim {
            size: 10
          }
        }
      }
    }
  }
  attr {
    key: "use_locking"
    value {
      b: false
    }
  }
  attr {
    key: "use_nesterov"
    value {
      b: false
    }
  }
}
node {
  name: "import/train/Adam/update_layer2/biases/Variable/ApplyAdam"
  op: "ApplyAdam"
  input: "import/layer2/biases/Variable"
  input: "import/layer2/biases/Variable/Adam"
  input: "import/layer2/biases/Variable/Adam_1"
  input: "import/train/beta1_power/read"
  input: "import/train/beta2_power/read"
  input: "import/train/Adam/learning_rate"
  input: "import/train/Adam/beta1"
  input: "import/train/Adam/beta2"
  input: "import/train/Adam/epsilon"
  input: "import/train/gradients/layer2/Wx_plus_b/add_grad/tuple/control_dependency_1"
  device: "/device:CPU:0"
  attr {
    key: "T"
    value {
      type: DT_FLOAT
    }
  }
  attr {
    key: "_class"
    value {
      list {
        s: "loc:@import/layer2/biases/Variable"
      }
    }
  }
  attr {
    key: "_output_shapes"
    value {
      list {
        shape {
          dim {
            size: 10
          }
        }
      }
    }
  }
  attr {
    key: "use_locking"
    value {
      b: false
    }
  }
  attr {
    key: "use_nesterov"
    value {
      b: false
    }
  }
}
node {
  name: "import/train/Adam/mul"
  op: "Mul"
  input: "import/train/beta1_power/read"
  input: "import/train/Adam/beta1"
  input: "^import/train/Adam/update_layer1/weights/Variable/ApplyAdam"
  input: "^import/train/Adam/update_layer1/biases/Variable/ApplyAdam"
  input: "^import/train/Adam/update_layer2/weights/Variable/ApplyAdam"
  input: "^import/train/Adam/update_layer2/biases/Variable/ApplyAdam"
  device: "/device:CPU:0"
  attr {
    key: "T"
    value {
      type: DT_FLOAT
    }
  }
  attr {
    key: "_class"
    value {
      list {
        s: "loc:@import/layer1/biases/Variable"
      }
    }
  }
  attr {
    key: "_output_shapes"
    value {
      list {
        shape {
        }
      }
    }
  }
}
node {
  name: "import/train/Adam/Assign"
  op: "Assign"
  input: "import/train/beta1_power"
  input: "import/train/Adam/mul"
  device: "/device:CPU:0"
  attr {
    key: "T"
    value {
      type: DT_FLOAT
    }
  }
  attr {
    key: "_class"
    value {
      list {
        s: "loc:@import/layer1/biases/Variable"
      }
    }
  }
  attr {
    key: "_output_shapes"
    value {
      list {
        shape {
        }
      }
    }
  }
  attr {
    key: "use_locking"
    value {
      b: false
    }
  }
  attr {
    key: "validate_shape"
    value {
      b: true
    }
  }
}
node {
  name: "import/train/Adam/mul_1"
  op: "Mul"
  input: "import/train/beta2_power/read"
  input: "import/train/Adam/beta2"
  input: "^import/train/Adam/update_layer1/weights/Variable/ApplyAdam"
  input: "^import/train/Adam/update_layer1/biases/Variable/ApplyAdam"
  input: "^import/train/Adam/update_layer2/weights/Variable/ApplyAdam"
  input: "^import/train/Adam/update_layer2/biases/Variable/ApplyAdam"
  device: "/device:CPU:0"
  attr {
    key: "T"
    value {
      type: DT_FLOAT
    }
  }
  attr {
    key: "_class"
    value {
      list {
        s: "loc:@import/layer1/biases/Variable"
      }
    }
  }
  attr {
    key: "_output_shapes"
    value {
      list {
        shape {
        }
      }
    }
  }
}
node {
  name: "import/train/Adam/Assign_1"
  op: "Assign"
  input: "import/train/beta2_power"
  input: "import/train/Adam/mul_1"
  device: "/device:CPU:0"
  attr {
    key: "T"
    value {
      type: DT_FLOAT
    }
  }
  attr {
    key: "_class"
    value {
      list {
        s: "loc:@import/layer1/biases/Variable"
      }
    }
  }
  attr {
    key: "_output_shapes"
    value {
      list {
        shape {
        }
      }
    }
  }
  attr {
    key: "use_locking"
    value {
      b: false
    }
  }
  attr {
    key: "validate_shape"
    value {
      b: true
    }
  }
}
node {
  name: "import/train/Adam"
  op: "NoOp"
  input: "^import/train/Adam/update_layer1/weights/Variable/ApplyAdam"
  input: "^import/train/Adam/update_layer1/biases/Variable/ApplyAdam"
  input: "^import/train/Adam/update_layer2/weights/Variable/ApplyAdam"
  input: "^import/train/Adam/update_layer2/biases/Variable/ApplyAdam"
  input: "^import/train/Adam/Assign"
  input: "^import/train/Adam/Assign_1"
  device: "/device:CPU:0"
}
node {
  name: "import/accuracy/correct_prediction/ArgMax/dimension"
  op: "Const"
  device: "/device:CPU:0"
  attr {
    key: "_output_shapes"
    value {
      list {
        shape {
        }
      }
    }
  }
  attr {
    key: "dtype"
    value {
      type: DT_INT32
    }
  }
  attr {
    key: "value"
    value {
      tensor {
        dtype: DT_INT32
        tensor_shape {
        }
        int_val: 1
      }
    }
  }
}
node {
  name: "import/accuracy/correct_prediction/ArgMax"
  op: "ArgMax"
  input: "import/layer2/activation"
  input: "import/accuracy/correct_prediction/ArgMax/dimension"
  device: "/device:CPU:0"
  attr {
    key: "T"
    value {
      type: DT_FLOAT
    }
  }
  attr {
    key: "Tidx"
    value {
      type: DT_INT32
    }
  }
  attr {
    key: "_output_shapes"
    value {
      list {
        shape {
          dim {
            size: -1
          }
        }
      }
    }
  }
  attr {
    key: "output_type"
    value {
      type: DT_INT64
    }
  }
}
node {
  name: "import/accuracy/correct_prediction/Equal"
  op: "Equal"
  input: "import/accuracy/correct_prediction/ArgMax"
  input: "import/input/y-input"
  device: "/device:CPU:0"
  attr {
    key: "T"
    value {
      type: DT_INT64
    }
  }
  attr {
    key: "_output_shapes"
    value {
      list {
        shape {
          dim {
            size: -1
          }
        }
      }
    }
  }
}
node {
  name: "import/accuracy/accuracy/Cast"
  op: "Cast"
  input: "import/accuracy/correct_prediction/Equal"
  device: "/device:CPU:0"
  attr {
    key: "DstT"
    value {
      type: DT_FLOAT
    }
  }
  attr {
    key: "SrcT"
    value {
      type: DT_BOOL
    }
  }
  attr {
    key: "_output_shapes"
    value {
      list {
        shape {
          dim {
            size: -1
          }
        }
      }
    }
  }
}
node {
  name: "import/accuracy/accuracy/Const"
  op: "Const"
  device: "/device:CPU:0"
  attr {
    key: "_output_shapes"
    value {
      list {
        shape {
          dim {
            size: 1
          }
        }
      }
    }
  }
  attr {
    key: "dtype"
    value {
      type: DT_INT32
    }
  }
  attr {
    key: "value"
    value {
      tensor {
        dtype: DT_INT32
        tensor_shape {
          dim {
            size: 1
          }
        }
        int_val: 0
      }
    }
  }
}
node {
  name: "import/accuracy/accuracy/Mean"
  op: "Mean"
  input: "import/accuracy/accuracy/Cast"
  input: "import/accuracy/accuracy/Const"
  device: "/device:CPU:0"
  attr {
    key: "T"
    value {
      type: DT_FLOAT
    }
  }
  attr {
    key: "Tidx"
    value {
      type: DT_INT32
    }
  }
  attr {
    key: "_output_shapes"
    value {
      list {
        shape {
        }
      }
    }
  }
  attr {
    key: "keep_dims"
    value {
      b: false
    }
  }
}
node {
  name: "import/accuracy_1/tags"
  op: "Const"
  device: "/device:CPU:0"
  attr {
    key: "_output_shapes"
    value {
      list {
        shape {
        }
      }
    }
  }
  attr {
    key: "dtype"
    value {
      type: DT_STRING
    }
  }
  attr {
    key: "value"
    value {
      tensor {
        dtype: DT_STRING
        tensor_shape {
        }
        string_val: "accuracy_1"
      }
    }
  }
}
node {
  name: "import/accuracy_1"
  op: "ScalarSummary"
  input: "import/accuracy_1/tags"
  input: "import/accuracy/accuracy/Mean"
  device: "/device:CPU:0"
  attr {
    key: "T"
    value {
      type: DT_FLOAT
    }
  }
  attr {
    key: "_output_shapes"
    value {
      list {
        shape {
        }
      }
    }
  }
}
node {
  name: "import/Merge/MergeSummary"
  op: "MergeSummary"
  input: "import/input_reshape/input"
  input: "import/layer1/weights/summaries/mean"
  input: "import/layer1/weights/summaries/stddev_1"
  input: "import/layer1/weights/summaries/max"
  input: "import/layer1/weights/summaries/min"
  input: "import/layer1/weights/summaries/histogram"
  input: "import/layer1/biases/summaries/mean"
  input: "import/layer1/biases/summaries/stddev_1"
  input: "import/layer1/biases/summaries/max"
  input: "import/layer1/biases/summaries/min"
  input: "import/layer1/biases/summaries/histogram"
  input: "import/layer1/Wx_plus_b/pre_activations"
  input: "import/layer1/activations"
  input: "import/dropout/dropout_keep_probability"
  input: "import/layer2/weights/summaries/mean"
  input: "import/layer2/weights/summaries/stddev_1"
  input: "import/layer2/weights/summaries/max"
  input: "import/layer2/weights/summaries/min"
  input: "import/layer2/weights/summaries/histogram"
  input: "import/layer2/biases/summaries/mean"
  input: "import/layer2/biases/summaries/stddev_1"
  input: "import/layer2/biases/summaries/max"
  input: "import/layer2/biases/summaries/min"
  input: "import/layer2/biases/summaries/histogram"
  input: "import/layer2/Wx_plus_b/pre_activations"
  input: "import/layer2/activations"
  input: "import/cross_entropy_1"
  input: "import/accuracy_1"
  device: "/device:CPU:0"
  attr {
    key: "N"
    value {
      i: 28
    }
  }
  attr {
    key: "_output_shapes"
    value {
      list {
        shape {
        }
      }
    }
  }
}
versions {
  producer: 24
}

